gcn-main/corner_1.pt (torch, 21403 bytes, 29 tensors)

weight f4 [6, 2]
00000000: ab19 c13e fd10 bb3e 3fb0 2f3f 3725 99ba
00000010: 41c9 d63e af41 083f a8fd 703e e015 0a3f
00000020: a277 01bf 5995 4dbe 0625 ee3e a1f9 043f
0.37714896 0.365364 0.68628305 -0.0011684065 0.4195042 0.53225225 0.23534262 0.5393963
-0.5057317 -0.20076503 0.46512622 0.51943403

bias f4 [6]
00000000: cfc6 1abf 65bb 303f a426 c2be 43dc e63c
00000010: 8ee5 c83e bee3 02bf
-0.6045961 0.6903594 -0.37920105 0.0281812 0.39237636 -0.51128757

weight f4 [6, 2]
00000000: 8ba6 203e 85ae 85bf 43a4 2fbf c60f 5b3a
00000010: 2b53 c83e 4309 9b3e 4156 f1be 908d e63e
00000020: 4ce2 fb3e 5122 7d3e e266 9b3e a525 9b3e
0.15688531 -1.0443884 -0.6861002 0.00083565374 0.39125952 0.30280504 -0.4713612 0.4502988
0.49196088 0.24720122 0.3035193 0.30302158

weight f4 [10, 6]
00000000: 943f 633e 776e f73e e47c 683e d650 a93e
00000010: 9980 a3bd 4da4 95be fdc3 033f df3e b63d
00000020: de53 ea3c 934f ad3e e3f1 6d3e 0825 d3bd
00000030: 5942 8e3d 892d 97be 3996 1d3e c826 2dbd
00000040: 69bf b8be b002 9cbe 61c8 5ebe 47b1 05bf
00000050: 46c7 a0be 274d c0be 2e44 e4be b6fd 8bbc
00000060: 403e e03d 5b38 873e 5451 70bd 9f88 ba3e
00000070: 6357 f9bd 2774 6d3e 1e11 fa3e 2aa2 553e
00000080: 8931 d53e 106f 6b3e 5066 14be 9c3f 22be
00000090: 3f4d 04bf 62f9 8fbe 5d69 1f3e fde3 cfbe
000000a0: d28c dcbd 0117 8bbe 66ee 153e 9423 453f
000000b0: 1d39 193e 1269 403b d1d7 d23d 5e5e 4d3d
000000c0: 5ad0 833c 529b 573e 82bb fe3d a801 873d
000000d0: 7457 a73e e56f 453e 71b2 05bd 7940 f8be
000000e0: 3527 2abe f5f9 ce3d e624 42be 75d8 e2be
0.22192222 0.48326465 0.22703892 0.33069485 -0.079835124 -0.29226914 0.5147093 0.088987105
0.028604444 0.33849773 0.23236804 -0.103097975 0.069462486 -0.29526928 0.15389337 -0.042273313
-0.36083534 -0.304708 -0.21756126 -0.5222363 -0.31402034 -0.37558863 -0.44583267 -0.017088752
0.10949373 0.26410183 -0.05867131 0.3643236 -0.12174871 0.2318884 0.48841184 0.20862642
0.41639355 0.22991586 -0.14492154 -0.15844578 -0.5168037 -0.2811995 0.15567537 -0.4060363
-0.10769047 -0.27165988 0.14641723 0.7700741 0.14963193 0.0029359502 0.1029507 0.050138824
0.01609056 0.21055344 0.12438108 0.06592113 0.3268391 0.19280966 -0.032640878 -0.4848669
-0.16616519 0.10106269 -0.18959388 -0.4430577

bias f4 [10]
00000000: 192e 6ebe 2353 99be aad3 863e a48f b13e
00000010: 74de 773d 81b9 c8be 1df2 38be 8f95 2fbe
00000020: 1817 bb3e 3813 98be
-0.23259772 -0.2994624 0.26333362 0.34679902 0.060514882 -0.39204028 -0.18061109 -0.17146896
0.36541057 -0.29702163

weight f4 [10, 6]
00000000: f286 42be e910 b5be 020f 3dbe f7e4 febd
00000010: 4ee0 62be de99 853e cfd7 08bf 2aa0 e6be
00000020: c0e4 95bd 194b 9abe 0b79 99bd ff6b 8fbd
00000030: 0057 4abe 1830 ff3e a0b2 3f3e 46e6 613e
00000040: 7431 54be 564a debc e4ee f53c c4d3 1f3f
00000050: 8c15 c13e 242f cc3e 56cc ac3e b244 a6bd
00000060: e1af c6bd 72cb 44bf 0744 c8bd 621e 57be
00000070: cae4 70be 57d7 303d c878 e3be b0be 85be
00000080: 0537 d53d 2782 50bd bbd3 a5be 1735 48be
00000090: 22ee c33e 51c8 083f 19a8 103d eadf a13e
000000a0: 00e8 12be 0537 9e3e 79fa 10be ca3c ccbe
000000b0: 41ee 16be 812f a63d cea5 18bd 7edf a8be
000000c0: 2e43 18be 09e2 9cbe 2d48 533d 4341 f6bd
000000d0: 5944 cabe aa81 9ebe cf0c 36be 4c7d a4bc
000000e0: 74e7 7bbe 2111 cdbe c395 e0bd 15e1 eebe
-0.1899679 -0.35364464 -0.18462756 -0.12446015 -0.22155878 0.26093954 -0.534543 -0.4504407
-0.07319021 -0.3013542 -0.0749379 -0.070030205 -0.1975975 0.4984138 0.18720484 0.22060499
-0.2072199 -0.027135056 0.030021138 0.62432504 0.3771175 0.39879715 0.33749646 -0.08118571
-0.09701515 -0.7687293 -0.097786 -0.21007684 -0.23524776 0.043174114 -0.44428086 -0.26122046
0.10410885 -0.050905373 -0.323881 -0.19551502 0.38267618 0.5343066 0.03531656 0.31616145
-0.14346313 0.30901352 -0.14158048 -0.39890128 -0.14739324 0.081145294 -0.0372675 -0.3298301
-0.14869377 -0.306412 0.051582504 -0.120241664 -0.3950527 -0.309583 -0.17778324 -0.020079277
-0.24600011 -0.4005213 -0.10966065 -0.466561

weight f4 [6, 2]
00000000: 2cfd 97be 8257 4dbe cc2a 6e3d 8e81 463f
00000010: 8a46 fbbc b83b e23e b852 0ebe 86c9 e03e
00000020: def2 69bd 77f2 3f3f c400 da3e 2e41 443f
-0.29685342 -0.20052913 0.058146283 0.77541435 -0.030673284 0.44186187 -0.13898742 0.4390375
-0.05711638 0.74979347 0.4257871 0.76661956

bias f4 [6]
00000000: 16b2 4abd e1ad 0cbf 1016 213f 0937 9fbe
00000010: 528e 1abf 8cff cbbe
-0.049486242 -0.5495282 0.6292429 -0.31096676 -0.60373414 -0.39843404

weight f4 [6, 2]
00000000: 89e6 173f 02e1 cc3e 0afd b23d 12d4 c63e
00000010: c5e3 8f3e b136 063f 2844 923e 75cf 5fbf
00000020: d5eb 343d 90c6 a5be 667b d23e 41a7 313e
0.59336144 0.40015417 0.087396696 0.38833672 0.28103462 0.524272 0.28567624 -0.8742593
0.04417022 -0.32378054 0.4110977 0.17348959

weight f4 [10, 6]
00000000: a0da 25be 5649 333e 8edb 81bc fba0 0abe
00000010: 2b71 2dbd aebd 94be 953a dabd 8ba4 a93d
00000020: cb0c ccbd 529b e6bd ba03 86be d27e 953c
00000030: 27a7 79be 5ae6 77be 9a0a 933e 55a9 c6be
00000040: fb59 9ebb bf73 2abe 1834 e23e 1073 fb3d
00000050: 22f5 babe b19f 203d c8b7 b0bd 8479 433e
00000060: 1ce1 51be e4e9 5b3e 1614 373e 7388 41be
00000070: 1d9b 03bf 4dbc 2fbe e751 ea3d 92df 0b3d
00000080: b978 8e3e 1df1 00be 78c2 8bbe 7b2e 973d
00000090: 50cc bdbe cefc 9abe 9c89 46bd a8fb 87be
000000a0: 0629 49be 4870 8a3d 21c8 f73d adda a93e
000000b0: 14ea 973e c7c8 4d3e 1a83 07be bd51 49be
000000c0: c13e df3d c349 7d3e 05c2 bdbc 9188 993e
000000d0: 466e a93c b139 f2bc a1fc b13e ce37 a2bc
000000e0: a16a 283d 1a7d 073e fd47 763d 9305 893e
-0.1619668 0.17508444 -0.015851762 -0.13537972 -0.042344254 -0.29050964 -0.10655705 0.08283337
-0.099633776 -0.11260094 -0.26174718 0.01824895 -0.2438017 -0.24208966 0.28719026 -0.38801065
-0.004832504 -0.16645716 0.4418037 0.12277806 -0.36515146 0.039214794 -0.086288035 0.19089323
-0.20496029 0.21475941 0.17878756 -0.18899707 -0.5140856 -0.17161675 0.11441403 0.03414876
0.2782648 -0.12591977 -0.27296805 0.07381912 -0.3706994 -0.30271 -0.04847108 -0.26559186
-0.19644555 0.06759697 0.120987184 0.3317465 0.29670775 0.20096122 -0.13233605 -0.19660087
0.10900641 0.24735169 -0.023163805 0.29987004 0.020682465 -0.029568525 0.34763053 -0.019802
0.041117314 0.13231316 0.060127247 0.26762065

bias f4 [10]
00000000: 04f1 553e be0a 43bc f5c3 ba3e b9ec 47be
00000010: 0c20 a3bd 11b7 43be 58cb aa3e 7416 273e
00000020: 47bd 6c3e f231 9e3e
0.20892721 -0.011904417 0.36477628 -0.19523896 -0.07965097 -0.19112803 0.33358264 0.16317159
0.23119079 0.3089748

weight f4 [10, 6]
00000000: 06af 3e3f 48a9 6ebe 5a02 db3e 84cf 493e
00000010: 668d 05be 863d 74bc fc2f 23be 952c 063f
00000020: 5af1 be3e 9abb 4c3f e907 4f3d 7f83 70be
00000030: fc1e 6c3e 1c7b 113e 6b82 cfba 3a5f 493f
00000040: 0b14 abbe e5f8 683e 688b e3be 1f99 dcbc
00000050: b23d a93e 189f aebe 484b f23d 3b43 e3be
00000060: 8df5 f93e 5e19 68be 5122 7fbe b11e f63e
00000070: e72a fc3e 41b7 953e a7a1 8fbe 043a e3be
00000080: 01e4 20be a6be cebe b39d 0f3f 6bf5 edbd
00000090: 5c26 c63e 3bd4 a63e 518f 8fbb e019 1e3e
000000a0: 0671 023d a62d 46be 0e96 05bf 7803 c9be
000000b0: e6e9 65be f41c 0dbf 9718 8fbe 21bf 3d3e
000000c0: 9b4d 14bf 065c f43d 5b8d e3be 5e33 2fbf
000000d0: bf14 f8bd 5c7d 2ebd 5d58 17bf cd24 48be
000000e0: 00a6 a6bc 3e21 10bf e011 8fbe 4855 5abe
0.74485815 -0.23306763 0.42775232 0.19708067 -0.1304222 -0.014907246 -0.15936273 0.52411777
0.37293512 0.7997376 0.050544653 -0.23487662 0.23058695 0.14207119 -0.0015831714 0.7866093
-0.3341373 0.22751196 -0.44442296 -0.026928483 0.33054882 -0.34105754 0.11830765 -0.4438723
0.48820153 -0.22665927 -0.24915434 0.4807029 0.49251482 0.29241374 -0.28053018 -0.443802
-0.15711977 -0.40379828 0.56100005 -0.116190754 0.3870114 0.32583794 -0.0043810983 0.15439558
0.03184607 -0.19353351 -0.5218209 -0.3926046 -0.22452506 -0.55122304 -0.27948448 0.18529941
-0.57930917 0.119316146 -0.44443783 -0.68437755 -0.12113332 -0.04260002 -0.59119207 -0.19545288
-0.020342827 -0.56300724 -0.27943325 -0.21321595

weight f4 [6]
00000000: 3fde 8a3f 4e9b b33f c5b8 503f 4d8f 5b3f
00000010: e612 653f cb8e 3c3f
1.0849074 1.403177 0.81531936 0.85765535 0.8948196 0.73655385

bias f4 [6]
00000000: ffc2 cfbd a5c1 40bb 6a74 83bd 766f c2bd
00000010: 7b65 e2bd a4a9 0abe
-0.101446144 -0.0029412296 -0.064186886 -0.09493916 -0.11054512 -0.13541275

running_mean f4 [6]
00000000: e2c9 1abf babc 303f 7527 c2be 66fd e63c
00000010: 59ec c83e 22e3 02bf
-0.604643 0.69037974 -0.37920728 0.028197002 0.3924282 -0.5112783

running_var f4 [6]
00000000: 4692 1342 4fdc 793e 5d5b 7442 6981 7042
00000010: ff0e ec3e 55ed 6742
36.892845 0.24400447 61.089222 60.126377 0.4610519 57.98177

weight f4 [10]
00000000: d7e6 c53f e88f b33f bd69 d03f 16b4 ff3f
00000010: 71a0 9b3f 3e22 ea3f 7671 e23f da1b d23f
00000020: 68bb 8f3f 95f7 613f
1.5461072 1.4028292 1.6282269 1.9976833 1.2158338 1.82917 1.7690876 1.641475
1.1229067 0.88268405

bias f4 [10]
00000000: 31e2 fc3e 71ce 8e3e b9a2 d93e ee51 183f
00000010: 0ac1 7f3e 55b9 2d3f 10fc 273f 6c47 2b3f
00000020: 27b6 873e 2e0b eebd
0.4939132 0.27891877 0.4250696 0.59500015 0.24975982 0.6786092 0.6561899 0.66905856
0.2650616 -0.11623226

running_mean f4 [10]
00000000: db1c 3ebe 8b4c dcbe 4894 583e 48fe 903e
00000010: e2d2 02be abf2 c5be a8e0 34be eabe 8fbd
00000020: 62ce 8a3e d755 86bf
-0.18565695 -0.43027148 0.21150315 0.28319 -0.12775758 -0.38661703 -0.17663825 -0.07018836
0.27110583 -1.0494946

running_var f4 [10]
00000000: 0c7c 823e 7176 653e 55c4 9b3e f42a 103f
00000010: a0dc 173f 15f9 f43d ce02 b53e 7d6b e53e
00000020: 193b 193e e467 ff3e
0.25485265 0.22408463 0.30423227 0.5631554 0.5932102 0.11961571 0.35353702 0.4480857
0.1496395 0.4988395

weight f4 [6]
00000000: ef11 a53f a451 433f 9ca5 3e3f f7e0 a93f
00000010: 1a73 123f c83b 303f
1.2896098 0.7629645 0.7447145 1.3271779 0.5720688 0.6884122

bias f4 [6]
00000000: b32a 073a cf98 11be 8e53 69be d1d6 07bc
00000010: 1745 54be b2b9 a1be
0.0005156204 -0.14218448 -0.2278578 -0.008290962 -0.2072948 -0.31586987

running_mean f4 [6]
00000000: daf0 4abd c7ad 0cbf 2216 213f 6f48 9fbe
00000010: 508e 1abf 87ff cbbe
-0.0495461 -0.54952663 0.62924397 -0.3110995 -0.603734 -0.3984339

running_var f4 [6]
00000000: e272 db3e 2fb0 6143 8943 f642 bd9c 8a3f
00000010: 6a72 9942 12d2 5a43
0.42861086 225.68822 123.131905 1.0829083 76.723465 218.82059

weight f4 [10]
00000000: c2f9 d53f e6de 6f3f 05a7 f23f 0243 c53f
00000010: eb33 0040 15f4 983f ca83 7f3f 7f6f fc3f
00000020: 773f e93f 36bb d63f
1.6716845 0.9369949 1.895722 1.5411074 2.0031688 1.1949488 0.9981047 1.9721526
1.8222493 1.6775882

bias f4 [10]
00000000: 7378 013f 3b06 a0bd d0a0 0e3f 8c46 323f
00000010: f4a3 293f e01c 383d 6c10 2cbd 1e5d 3e3f
00000020: fdf6 293f 85fe 343f
0.50574416 -0.07813688 0.5571413 0.69638896 0.662658 0.044949412 -0.04200785 0.74360836
0.663925 0.70700866

running_mean f4 [10]
00000000: 5759 993e f9bc 363e 99d6 863e d94a 4cbe
00000010: d0f9 0abd 0305 dabe 9e26 1abd b6c6 893d
00000020: 1a5c fd3d 2e0a 613e
0.29950973 0.17845525 0.263356 -0.19950427 -0.033929646 -0.4258195 -0.037634484 0.06727354
0.123710826 0.2197654

running_var f4 [10]
00000000: 6f8f 153f ce51 103f 4389 7d3f d7a3 173f
00000010: a86c 0b3f 7cc2 693e 9c5a 0a3f eb70 1e3f
00000020: b361 693f 61e0 543f
0.5842199 0.56374824 0.9903757 0.59234375 0.5446267 0.22828096 0.5404451 0.6189105
0.911647 0.83154875

weight f4 [1, 20]
00000000: befe 0abf 4b6f 8abe bbb1 253f 7417 3d3f
00000010: fac7 51be 43f1 1abf 11ca 4c3f 1738 40bf
00000020: 2882 a7be f806 753d d153 423f 9a5f c03d
00000030: 8fa3 5a3f a469 2cbf fc41 453f 0bc9 84be
00000040: 8fa3 fe3d 5e68 65bf 231c 63bf 4025 42bf
-0.54294956 -0.27038035 0.6472432 0.7386391 -0.20486441 -0.60524386 0.7999583 -0.75085586
-0.3271649 0.0598211 0.75909144 0.093932346 0.8540582 -0.67348695 0.7705381 -0.25934634
0.1243354 -0.89612377 -0.8871481 -0.7583809
