gcn-main/corner.pt (torch, 52215 bytes, 38 tensors)

weight f4 [4, 2]
000000 d6 4b 24 3e eb 8a ca 3e 3e 05 31 bf 38 6e d3 be
       0.16044554 0.3955911 -0.69148624 -0.41295028
000010 57 3c 9b bd af d2 11 3e df 9f c0 3d 63 fa 66 bd
       -0.07579868 0.14240526 0.09405493 -0.05639113

bias f4 [4]
000000 4e bd f7 38 40 f2 26 ba 45 98 2b b9 9f bc 84 b8
       0.000118131386 -0.00063684955 -0.00016364556 -6.329384e-05

weight f4 [4, 2]
000000 79 a7 15 3d be e9 25 bf 66 6d 2c 3f 87 a8 95 3d
       0.036536667 -0.6480979 0.6735443 0.07307535
000010 b8 d7 5e 3f 77 c3 08 3d 8f d8 91 bf 71 ad 75 3d
       0.8704791 0.033389535 -1.1394213 0.05997986

weight f4 [4]
000000 a0 10 77 3f fc 71 51 3f 33 45 8e 3f 3a 0d 8b 3f
       0.9650974 0.8181455 1.1114868 1.0863411

bias f4 [4]
000000 df 35 ac 3e b3 61 bb 3e dd 24 1c 3e f0 0f a8 bc
       0.3363485 0.36597976 0.15248437 -0.020515412

running_mean f4 [4]
000000 ee e1 ec be df 66 79 c0 84 39 2d 41 01 1a 3b c1
       -0.4626612 -3.8969038 10.826542 -11.693849

running_var f4 [4]
000000 40 68 96 41 fa dd b4 41 bb 0c 85 42 7d 71 d3 42
       18.800903 22.608387 66.524864 105.72166

weight f4 [8, 4]
000000 9b ca 69 be ae 3f 14 3b 0b 44 b7 be 0b df 93 be
       -0.22831194 0.0022620964 -0.357941 -0.28881106
000010 a2 95 86 3e 68 72 23 bd 7e 57 3c 3c 97 6e 40 be
       0.26286036 -0.03990403 0.011495469 -0.18792187
000020 27 f3 b8 be a9 d8 7e 3d da ad a2 bd 6f 2b 26 3f
       -0.3612301 0.062218342 -0.07943316 0.64910024
000030 38 17 1c bf 3d 55 9f 3e c4 e6 ab 3e 6c b2 e0 bd
       -0.6097293 0.3111972 0.33574498 -0.10971531
000040 df b8 94 3e cc 4f 0c 3f ea d6 66 be 7b 19 b2 be
       0.29047295 0.5480926 -0.2254292 -0.34785065
000050 4b 04 9e be 3d 9a 87 be f5 18 ac 3e a7 3f 84 be
       -0.3086265 -0.26484862 0.3361279 -0.25829813
000060 91 c1 7e 3e 21 e9 aa be d7 94 94 be 54 a0 fa 3e
       0.24878527 -0.33380988 -0.29019806 0.48950446
000070 6b e1 0d be fc 9b ae be c5 42 a9 bc 5e 2c 8b 3e
       -0.13855521 -0.34103382 -0.020661721 0.27182287

bias f4 [8]
000000 74 59 6a bb b6 30 b2 3a 54 05 e2 3a 50 97 fb 3a
       -0.0035758885 0.0013594839 0.001724402 0.0019194875
000010 b9 11 e2 b9 34 6c 7a 3a fe ab a4 bb 76 8d c8 3a
       -0.00043119284 0.00095528667 -0.005025386 0.0015300948

weight f4 [8, 4]
000000 d0 59 c7 3d 26 72 2c 3e f8 10 d8 3e 9b de 06 be
       0.09733927 0.16840419 0.42200446 -0.13170855
000010 06 09 55 3e 68 bd 7c be 9b 72 8c be 53 17 4f 3f
       0.20804223 -0.24681628 -0.27431187 0.80894965
000020 8e f7 b1 3e 63 dd ea 3e af 7b a7 be 6c 68 36 3e
       0.34759182 0.4587203 -0.3271155 0.17813271
000030 34 23 9d be 0f 51 79 be a2 84 20 be 45 b6 bb be
       -0.3069092 -0.24347328 -0.15675595 -0.36662498
000040 ee 49 71 3e 7c 97 d0 3e 19 12 2d 3d c5 36 f7 be
       0.23563358 0.40740573 0.042253587 -0.48283973
000050 6c 98 1b 3d 1b 81 21 3f ba bf 8b be 44 01 55 3e
       0.037987158 0.63087624 -0.27294713 0.20801264
000060 36 cc 15 3e e9 c5 8e be a1 ad 9f be 8c c3 7e be
       0.14628682 -0.27885368 -0.31187156 -0.24879283
000070 f7 9c 3d 3f 09 d3 43 be 9e ef 55 be 9b f6 8c be
       0.74067634 -0.19123472 -0.20892188 -0.27531895

weight f4 [8]
000000 e0 2b 8d 3f b4 ae 99 3f b2 48 6d 3f 4a c9 79 3f
       1.1029015 1.200644 0.9268905 0.9757277
000010 b4 44 6a 3f b3 54 62 3f 4b e1 81 3f b2 53 72 3f
       0.9151108 0.8841049 1.0146879 0.9465896

bias f4 [8]
000000 d0 d7 77 3d b1 41 9d 3e 8f 1b 3a 3e 23 2c b1 bc
       0.06050855 0.3071418 0.18174575 -0.021627491
000010 e8 2c 11 3e 21 33 e2 3d ba a8 26 3e 1b 83 f3 3d
       0.14177287 0.11044908 0.16275302 0.11890241

running_mean f4 [8]
000000 12 68 06 be 7e 86 79 3e 3e e6 d6 3e e5 24 19 bf
       -0.13125637 0.24367711 0.41972536 -0.5982192
000010 0f 90 be 3e 07 ff 62 3d a8 ca a3 be 5d 98 83 bd
       0.37219283 0.055418994 -0.31990552 -0.06425545

running_var f4 [8]
000000 0a 0e ff 3d 0a a9 9e 3e 19 39 a0 3e 3f 28 40 3e
       0.124538496 0.30988342 0.31293562 0.18765353
000010 08 19 bf 3e de ba 14 3d 79 e9 49 3e 41 68 55 3e
       0.37323785 0.036311023 0.19717969 0.20840551

weight f4 [64, 8]
000000 0d d5 9f bd 9a 8b ee 3e 32 3f 57 be 0d de 9b bd
       -0.07804308 0.46590883 -0.21020201 -0.07610712
000010 1c 7e 74 3e 2b 53 20 be a6 b9 3b be ab fe 5c 3d
       0.23876232 -0.15656726 -0.18332538 0.053953808
000020 cd d1 fc 3d 92 82 e1 bd f3 1c 8a 3e cd 25 93 3d
       0.12344704 -0.110112324 0.26975212 0.07184944
000030 d7 72 83 be 6c 03 d1 bc 2b 09 15 bf 47 ba fe 3d
       -0.25673553 -0.025514327 -0.58217114 0.12437873
000040 6a 7e 11 bf 86 a6 81 bd 6c a0 9d 3e 20 5a ad 3e
       -0.5683352 -0.0633059 0.30786455 0.33857822
000050 f2 4a bc be 73 04 40 be 84 10 05 bf 4b b3 2c 3d
       -0.3677593 -0.18751697 -0.51978326 0.042163175
000060 da d1 c3 3e 20 43 cc bd c9 af c2 3d e9 8d 05 be
       0.38246042 -0.099737406 0.095061846 -0.13042416
000070 94 97 14 bf 74 b2 a0 be d1 3e 93 bd f0 39 23 bb
       -0.5804379 -0.3138615 -0.07189716 -0.002490636
000080 8c 49 78 bc 50 3d d9 3e 7f 12 d1 3c 77 27 19 3c
       -0.015154254 0.4242959 0.025521515 0.009347788
000090 ca 7e 1e 3e b4 2a fe bd 7c 7f f2 bd f6 54 89 be
       0.15478054 -0.12410489 -0.11840722 -0.26822633
0000a0 1a 2a b8 be 21 7c 46 3e 91 6e 80 3c d7 ad e2 bd
       -0.3596962 0.19383289 0.015677722 -0.110683136
0000b0 33 3a 69 be c0 06 87 be 62 54 73 3e 7b 36 9f 3e
       -0.22776107 -0.26372337 0.23762658 0.31096253
0000c0 d1 a0 09 bf c4 d6 22 be a9 79 80 be 59 8d df 3e
       -0.5376101 -0.15902239 -0.2509282 0.43662527
0000d0 84 90 ad be d0 37 06 3d 1e 85 e0 3e ca 83 da 3d
       -0.3389932 0.03276807 0.4385156 0.10669668
0000e0 86 31 ea bd 3b 46 45 bf 77 8a 0e be f2 2c 98 bd
       -0.11435227 -0.7706029 -0.13920008 -0.07430448
0000f0 d6 43 21 3e e3 19 77 be 3d 9e 58 bd b9 b0 0c 3b
       0.15748534 -0.24130969 -0.052885283 0.002146764
000100 ce 93 03 3d ff 5c 81 be b7 61 4d be 03 05 09 3e
       0.03212338 -0.25266263 -0.20056807 0.13380818
000110 ba 67 70 be 79 8d d4 bc 31 e3 a9 3e d5 d3 3e be
       -0.23477069 -0.025946366 0.33181146 -0.18635495
000120 d2 37 37 3e d2 e8 d8 3d 53 7e d5 bd 4f a0 9b 3d
       0.17892388 0.10591282 -0.10424485 0.07598936
000130 88 48 94 be b5 8a a3 be d4 02 34 be 7a 77 6f 3d
       -0.28961587 -0.31941763 -0.17579204 0.05846355
000140 82 d1 b7 bd 6e 4a e0 3d c2 07 6e 3e f9 a7 b0 bc
       -0.08975507 0.10951696 0.23245147 -0.02156447
000150 d1 d6 34 be c5 79 ae be 0a fa 05 3e 63 6d 2c be
       -0.17660071 -0.34077278 0.13083664 -0.16838603
000160 60 95 49 bc 03 4c a7 3d e2 47 94 be 48 eb 97 3d
       -0.01230368 0.08168795 -0.28961092 0.07417923
000170 11 8a 0e bf 9c 33 00 3f 5e c5 5e 3e db 66 8d 3e
       -0.5567942 0.5007875 0.21754977 0.27617535
000180 1d 9d 3b 3e 1e 67 75 3d 13 dd 6b bd 92 d5 5b 3e
       0.18321653 0.059912793 -0.05758388 0.2146819
000190 d0 53 44 3e 92 f7 32 bf 5e ea 97 be d9 42 15 3e
       0.19172597 -0.6990901 -0.29670995 0.14576282
0001a0 ce a8 20 bf c0 6d 88 3e f3 d1 97 ba e4 d1 9d 3d
       -0.62757576 0.26646233 -0.0011582955 0.07706049
0001b0 51 de c2 bd 39 ed 92 3d 17 77 81 bc 66 86 c1 3d
       -0.0951506 0.07174153 -0.015803857 0.094494626
0001c0 95 38 de be 59 45 12 be 9c 67 a4 3d 24 1b 35 be
       -0.43402544 -0.14284267 0.080275744 -0.17686135
0001d0 36 cc 40 3d cf ef a4 bd 92 ab 75 be 5f f3 47 bf
       0.04706975 -0.08053552 -0.2399123 -0.7810573
0001e0 4a 01 ca be 40 0e db be f8 49 7f 3e 47 24 80 bb
       -0.39454108 -0.4278431 0.2493056 -0.0039105746
0001f0 17 a2 1a 3e 5b 1e 25 be 61 8f a5 be b4 24 e6 3d
       0.15100895 -0.16124861 -0.32335952 0.11237469
000200 83 e1 da 3e 2b 93 4e 3e 9b 56 ef 3d 7c e6 a6 be
       0.42750177 0.20173328 0.116864406 -0.3259772
000210 fc dd 57 3e 98 c4 31 be c2 25 00 3f 6a 63 ac 3d
       0.21080774 -0.17360151 0.50057614 0.08417399
000220 9d 5e e5 bd 47 ea 3a bf 13 40 3a be 9d c1 a7 3e
       -0.11199687 -0.7301373 -0.18188505 0.32764903
000230 61 d2 b6 3e 50 24 40 be fb a1 49 3d 3d f1 80 3e
       0.3570738 -0.18763852 0.049226742 0.2518405
000240 c7 0b 7b 3e b0 ec a1 3e 96 96 31 bd b1 d5 90 3e
       0.24516211 0.3162589 -0.0433565 0.28288034
000250 50 57 53 3d fd b6 b0 be 0a f7 8b 3e e7 bd 75 be
       0.05159694 -0.3451461 0.27336913 -0.23998223
000260 9f e4 b3 be 17 57 a5 3d 18 d5 65 3e ad a4 7a bc
       -0.35135362 0.08073252 0.2244457 -0.015298051
000270 9a 0b a8 3e ef 16 9e 3e 95 c4 ef 3e 17 bf 26 be
       0.3282135 0.30876872 0.46829668 -0.16283832
000280 b7 5b 57 3c 48 0b 0f be 8b 7f 8b 3e f5 53 91 3e
       0.013144425 -0.13969147 0.27245745 0.28384367
000290 c2 cf a3 bb d1 d1 3d 3e 80 92 3c bd f7 c7 1e 3e
       -0.004999132 0.1853707 -0.04603815 0.15505968
0002a0 2d 8f 9b be e5 bd ec bd 34 0b 8d be 97 56 90 be
       -0.30382672 -0.11559657 -0.2754761 -0.28191063
0002b0 b3 0e 9f be 75 ae 8b be 28 87 15 bd 9a 9a 6d bd
       -0.31065902 -0.27281538 -0.03650585 -0.058008768
0002c0 ce ba b9 3e db 15 64 be 19 89 65 3e b6 bc a2 3e
       0.36275333 -0.22273962 0.2241558 0.317846
0002d0 4b 0f 52 3e 66 92 60 3e 54 a4 8d 3d 9e a4 13 be
       0.20513646 0.21930847 0.06916109 -0.14418265
0002e0 52 31 81 bd 3d b1 7b 3e 54 9d d9 3c e1 34 84 3e
       -0.06308235 0.2457933 0.026564278 0.25821593
0002f0 a5 a3 e3 be a9 fe 92 3e b0 c8 61 3d f0 0c bb bd
       -0.44460788 0.28709915 0.05512303 -0.09133327
000300 0e 08 42 be 17 88 d1 be 75 3b 9c bd 5b 75 f3 be
       -0.18948385 -0.4092414 -0.07628528 -0.47550473
000310 de 86 84 3e ae fa 93 3d 55 03 9f 3e 6d d4 95 3e
       0.25884145 0.07225548 0.3105723 0.2926363
000320 91 44 76 be 4e e5 97 3e f7 b4 da 3d 97 31 02 3f
       -0.24049594 0.29667133 0.106790476 0.5085692
000330 d8 53 80 3e 46 d7 dc be 88 0b b6 bd 76 6d 14 bf
       0.25063968 -0.4313299 -0.08888918 -0.57979524
000340 3e 1c a0 be 67 50 a4 bd 9a 9b 12 bf fb cb 82 be
       -0.31271547 -0.08023148 -0.5726868 -0.2554625
000350 46 5a 1c bd c4 70 27 be b9 46 9b be 20 02 a7 3d
       -0.03817203 -0.1635161 -0.30327395 0.08154702
000360 6b 0f f0 bd 3c b9 94 3d 1e d5 76 be f3 3f 9c bc
       -0.11721691 0.07261893 -0.24104735 -0.019073462
000370 f5 ba ec 3e 1e af 5b be 42 70 a4 3e 8c ff 2c 3d
       0.46236387 -0.2145352 0.32116896 0.042235896
000380 62 dd 9e bd 76 5d 87 3d 16 9c a3 be 31 73 1b be
       -0.07757069 0.06609623 -0.31955022 -0.15180661
000390 f3 0a d3 be 14 de e5 be 9d 53 b8 3e e2 8d be be
       -0.4121929 -0.44895995 0.36001292 -0.37217623
0003a0 aa 2e 37 be de 88 84 be 85 c2 a0 3e e2 6e fb b9
       -0.17888895 -0.2588567 0.31398407 -0.00047957065
0003b0 02 a4 9d be a0 26 8c 3e c9 8f bc bd a1 18 96 bb
       -0.3078919 0.2737322 -0.09207112 -0.0045805727
0003c0 47 a7 12 be 2d 1c 07 bf 17 ab 29 bd 24 d4 2c 3d
       -0.14321624 -0.5277737 -0.04142293 0.0421945
0003d0 3f b1 d9 3e 88 26 14 3c 0a f4 86 3e 2e 60 6f bd
       0.4251804 0.00904239 0.26358062 -0.058441333
0003e0 6a a2 7e bd f9 09 de bd 30 e1 52 3e 37 5b e3 bc
       -0.06216661 -0.10841746 0.20593715 -0.027753456
0003f0 ba 72 af be 5d f6 9d 3e 4b eb 7c 3e e4 0a 4f 3e
       -0.34267217 0.30852023 0.24699132 0.20218998

bias f4 [64]
000000 7b 83 56 b9 d7 7c 03 3a fc c5 e3 39 6e b2 64 3a
       -0.0002045761 0.0005015856 0.00043444324 0.0008724098
000010 c5 a4 b1 ba 0c bd cc 39 12 63 d2 b8 c9 49 54 3a
       -0.0013553133 0.00039050763 -0.000100320336 0.0008098153
000020 7f 58 2b ba 1a 48 b9 b9 c3 64 56 ba 02 90 e8 b9
       -0.0006536319 -0.0003533967 -0.0008178467 -0.00044357782
000030 ee 08 0e ba 1d 55 b0 ba e1 cc ec b9 30 82 97 39
       -0.0005418201 -0.00134531 -0.00045166074 0.00028897962
000040 f1 78 38 ba 63 6d 42 ba be 75 1b 3a 26 d9 5c 3a
       -0.00070370646 -0.00074168126 0.0005930326 0.00084246916
000050 be 4c 0c b7 c7 5c 26 38 4b 4c 89 b9 ee a7 03 b9
       -8.362518e-06 3.966389e-05 -0.0002618752 -0.00012555692
000060 c2 c0 0d 39 de dc a4 b9 1d 45 89 3a c0 ff bf ba
       0.00013518616 -0.00031445076 0.0010472868 -0.0014648363
000070 19 46 4d 37 38 86 f3 36 7f d5 43 3a 32 68 f8 39
       1.2235273e-05 7.2575895e-06 0.0007470473 0.00047379878
000080 f1 16 ff b9 ed 74 26 39 ca ed 2f 3a 74 2d 36 ba
       -0.00048654483 0.00015874552 0.00067111535 -0.0006949522
000090 10 83 9a ba 1f 07 f3 b9 07 1e ab ba f6 60 42 ba
       -0.0011788327 -0.00046353877 -0.0013055213 -0.0007414961
0000a0 d3 ec 9f b9 46 e1 36 b8 85 38 74 39 83 98 27 b9
       -0.0003050329 -4.3601984e-05 0.00023290708 -0.00015983176
0000b0 34 cb c8 b9 79 df 85 3a a9 ff 34 38 da fa 81 ba
       -0.0003829837 0.0010213695 4.3153446e-05 -0.0009916679
0000c0 2c 44 93 38 ce 73 7c 39 2d fe c6 37 97 dc 94 39
       7.022204e-05 0.00024075733 2.37218e-05 0.00028393112
0000d0 81 78 a5 b9 88 38 15 3a 7b 82 59 b9 37 95 b0 b9
       -0.00031561035 0.0005692323 -0.0002074334 -0.0003368051
0000e0 94 a0 59 b7 80 07 be b9 b8 2c 0c ba 59 a5 4e 3a
       -1.2971595e-05 -0.00036245212 -0.000534724 0.0007882915
0000f0 1d 1c 8f b9 70 72 3c ba a7 30 83 ba c8 b8 70 b9
       -0.00027296031 -0.00071886834 -0.0010009006 -0.0002295702

weight f4 [64, 8]
000000 51 47 a4 3e 57 8c d4 be 15 96 08 3e b3 40 8d 3e
       0.3208566 -0.4151332 0.13338502 0.27588424
000010 1f 4c 59 be 0d e2 77 be 32 98 30 3e 1d fa 91 be
       -0.21220444 -0.24207325 0.17245558 -0.28511134
000020 74 ae 4f be 2f 41 dc be 10 b0 45 3c ff 0a c4 be
       -0.20281392 -0.4301848 0.012065902 -0.3828964
000030 1d 74 35 3e ff 46 3e be c3 e8 97 3d a5 8c 24 3e
       0.17720075 -0.1858177 0.07417443 0.16069277
000040 ff 3b c8 be 22 73 da bd 88 b9 40 3d 3c 53 5f bd
       -0.39108273 -0.10666491 0.047051936 -0.054522738
000050 af f3 16 be 42 3e 03 3e 69 66 68 3e c5 f2 c7 3d
       -0.14741395 0.12816718 0.22695316 0.097631015
000060 d2 54 bd 3d ee 01 12 be a3 58 a8 bd de b6 e8 3d
       0.09244694 -0.14258549 -0.08220031 0.11363004
000070 8e 8c 9b 3e a4 b9 88 3e 15 76 eb 3d 28 16 0e 3e
       0.30380672 0.26704133 0.11497132 0.1387564
000080 65 be d6 be 5b 3d 19 3e 16 f3 47 3d ab 37 14 be
       -0.41942134 0.14964812 0.04881581 -0.1447436
000090 a3 1e 02 3f e9 a7 6f be 0c 5c a3 be bd 4c 0a 3e
       0.50828 -0.23403896 -0.31906164 0.13505836
0000a0 06 fd ef be df 32 b9 3d 43 d3 e5 3c ec c0 a1 3e
       -0.4687273 0.09042906 0.028054839 0.315925
0000b0 2f cd 8f bd 3f 90 89 bd 0c e1 f5 be e1 21 93 3e
       -0.070215575 -0.06716966 -0.4802326 0.28736785
0000c0 04 51 51 bd 2c 45 cb be f8 4f d9 bd 36 9f 48 3e
       -0.051102653 -0.3970121 -0.10610956 0.19591984
0000d0 9f 59 52 3e 14 8a 19 be 7a ca f4 bd 62 d8 38 3e
       0.20542 -0.14994079 -0.11952682 0.18051293
0000e0 c1 29 7e be d7 e5 03 3e 60 0b 94 3d 00 90 af bd
       -0.24820615 0.12880646 0.07228732 -0.08572388
0000f0 7e 71 59 be 30 29 31 bd 2d 30 5e 3d 8e 6e c7 bd
       -0.212347 -0.04325217 0.054245163 -0.097378835
000100 28 2c e3 3e 0f 67 eb 3e 75 03 72 3b 10 fe 11 be
       0.44369626 0.45977065 0.003692833 -0.14257073
000110 bd 9b b2 3e 0a ff 76 3e b3 2c 8d bc e8 b9 6c 3e
       0.34884444 0.24120727 -0.017233228 0.23117793
000120 5a 26 86 bd ed b9 f3 3e 97 37 d5 be b0 27 d1 bd
       -0.06550284 0.47602788 -0.41643974 -0.10212648
000130 b2 1f c3 bd 92 7f de bd 31 7c 57 be ee 8a ab 3d
       -0.0952753 -0.10864176 -0.21043469 0.08376108
000140 1b e0 8d bc 66 93 3d bf 6a 50 82 bd c6 d9 ba bd
       -0.017318776 -0.7405304 -0.06362994 -0.09123568
000150 a9 3a 11 3e c2 31 9c be 6d 82 ee bd 39 6e 17 3e
       0.14182533 -0.30506712 -0.116459705 0.1478814
000160 87 2d 59 bd 96 f8 65 be 33 50 44 be 05 f3 c0 bd
       -0.053021934 -0.2245811 -0.19171219 -0.09421352
000170 66 9c aa 3d 6f 17 13 bf 62 ba e7 be 04 31 6f 3d
       0.08330612 -0.5745763 -0.45259386 0.058396354
000180 12 5a 50 bd 91 14 23 3e 86 c3 0c 3e ae d7 29 be
       -0.050867148 0.15925814 0.13746461 -0.16586182
000190 4b ba 9c be 00 ce 6c bd 39 54 9f 3e c2 2e 0a 3e
       -0.3061088 -0.057813644 0.31118944 0.13494399
0001a0 26 95 c1 bd 07 98 b3 3d d2 6b 85 bc 6f a8 b3 3c
       -0.09452276 0.08769231 -0.016286764 0.021930901
0001b0 24 6a 7f be 99 59 59 be ac ad 16 bf be d7 a0 3e
       -0.24942833 -0.21225585 -0.5885875 0.31414598
0001c0 6a 79 2d 3e 20 fc f7 3d e7 c0 83 be 65 06 d3 3e
       0.16940847 0.12108636 -0.2573311 0.41215816
0001d0 08 d9 45 3c e5 d5 89 3d 3e ed 18 3e 93 e0 9b 3e
       0.01207567 0.0673025 0.1493425 0.30444774
0001e0 82 f9 86 3c 21 2b c9 3e f9 21 6a bc 59 c3 98 bc
       0.016476396 0.39290717 -0.014290326 -0.018647837
0001f0 91 11 cd b9 f7 3d a2 be 6d 78 e2 3e 32 73 3f 3e
       -0.00039113735 -0.316879 0.44232503 0.18696287
000200 95 7a 31 be a8 5d a5 3c a8 54 57 be d8 0a ab bc
       -0.17331918 0.02018626 -0.21028388 -0.020879194
000210 15 d4 e7 3d 31 33 14 3d 52 f1 98 bd f3 39 01 bf
       0.11319748 0.036181632 -0.07467903 -0.5047905
000220 12 c8 51 bc 5d b9 2b 3e 29 d3 8f 3d 2a fb 61 3e
       -0.012804048 0.16769929 0.070226975 0.22068468
000230 3d 1e 5b be 67 83 fa be ea 20 0a be 18 6e 84 3e
       -0.21398254 -0.48928377 -0.13489118 0.25865245
000240 70 5f 89 bd 2e 8b d4 3e 53 ae 37 bd f3 db 6c be
       -0.067076564 0.41512436 -0.044843983 -0.23130779
000250 bd 77 85 3e 7a 5c 70 be 64 83 fd be d3 bb a4 bd
       0.26067916 -0.23472777 -0.49514306 -0.08043637
000260 a9 49 83 be f2 b1 64 be 52 ad a8 be 05 0e ed 3d
       -0.25642136 -0.22333506 -0.32944733 0.1157494
000270 ca 58 e4 bd bd 33 be 3e 2c 96 64 3e 09 ef 3a 3c
       -0.11149748 0.37148848 0.22322911 0.0114095295
000280 b4 03 97 3e 86 66 89 be fd 32 a2 3e ca 9b 4a bd
       0.29495013 -0.26836032 0.31679526 -0.04946498
000290 bf 31 1c 3c 1c ea 17 be 89 a0 47 3e 29 21 11 3f
       0.009533345 -0.148354 0.19494833 0.56691223
0002a0 62 62 df be d9 90 a7 3e 96 12 87 3e 48 db 42 3e
       -0.43629748 0.32727697 0.26381367 0.19028962
0002b0 9f b3 04 be a8 a0 bf 3e 0c c4 05 bd 32 22 25 bd
       -0.12959145 0.37427258 -0.032657668 -0.040315814
0002c0 01 16 0a be 6c e1 dc 3b 38 4e 58 be 27 55 e3 3d
       -0.13484956 0.0067407396 -0.21123588 0.11100226
0002d0 e7 59 29 3e d8 9f ef 3e 1d b8 a9 3c 69 a4 39 bd
       0.16538201 0.4680164 0.020717675 -0.04532281
0002e0 81 b0 b4 3e 38 67 bf 3e 6b 1e 49 3e 69 fb 94 be
       0.35290912 0.37383437 0.1964051 -0.2909806
0002f0 4f fb 05 3e 8c 1e f6 bd 17 f7 c8 be a5 33 37 3d
       0.13084148 -0.12017545 -0.39251015 0.044726986
000300 ab a9 a0 3d 16 d9 53 bd 75 be 8a 3d 2d 87 bf 3e
       0.078448616 -0.0517207 0.06774608 0.37407818
000310 3d e0 fb bc 82 5a 97 be 05 8e 59 be 52 b5 a8 3e
       -0.030746574 -0.2956124 -0.21245582 0.32950836
000320 1f c4 1e 3d 3f 43 75 3e 5b ae d9 be 30 ed 8a be
       0.038761254 0.23951434 -0.42515835 -0.27134085
000330 5d ba af 3d 40 77 77 3e 32 3d ac 3c e0 a3 a6 3e
       0.08580468 0.24166584 0.021025274 0.32546902
000340 ea f6 e0 be 4d 6c ec 3b f4 5f 89 3e 6d 73 f4 bd
       -0.4393838 0.007215059 0.2683102 -0.11936078
000350 58 49 8f 3e 54 dd d2 be 3b f1 80 bd 8c a1 80 bd
       0.27985644 -0.41184485 -0.06296011 -0.062808126
000360 72 ff c1 bd cb ed 08 3d fa da 97 3e 30 72 94 3e
       -0.094725505 0.033429902 0.29659253 0.28993368
000370 b4 49 18 3d cb 83 31 3e fc d6 39 be c2 bf cb be
       0.037179664 0.17335431 -0.18148416 -0.39794737
000380 f5 32 72 3c 70 22 ac 3c a5 4c 84 be d5 d7 8b be
       0.014782657 0.021012515 -0.25839725 -0.27313104
000390 56 21 05 3e 98 51 f1 3d 19 0c 1c 3e b1 0b e5 bd
       0.13000998 0.11783141 0.1523899 -0.111838706
0003a0 49 c5 e8 3e df 52 52 be a8 d7 3b bd f2 6b 9b be
       0.45463017 -0.20539425 -0.045859963 -0.30355793
0003b0 54 e5 4f 3e 78 6b b9 3d e5 ab 4e 3e 3c 7e ea bd
       0.20302325 0.09053701 0.2018276 -0.114498585
0003c0 0e 26 db bb 89 eb 95 be 31 5e c8 bd 21 b8 ca 3c
       -0.006687886 -0.29281262 -0.097835906 0.024746003
0003d0 17 11 63 bc 14 8d 70 be 9e 35 b7 3e 2a 0a 19 bf
       -0.013859055 -0.23491317 0.35783094 -0.59781134
0003e0 68 47 2e bf 36 4d c0 bd 14 15 52 3e d9 8f c8 3e
       -0.6807771 -0.09389727 0.20515853 0.39172247
0003f0 15 53 b6 bd 18 d6 a3 3e a7 e1 39 be 73 f7 b2 3e
       -0.089025654 0.31999278 -0.18152486 0.34954414

weight f4 [64]
000000 a0 55 94 3f cd 01 74 3f 5a 90 7f 3f 48 b0 73 3f
       1.1588631 0.9531525 0.9982964 0.9519086
000010 d4 a4 72 3f 7a 32 91 3f 46 43 69 3f 6b 44 93 3f
       0.9478276 1.1343529 0.91118276 1.1505255
000020 29 b1 7d 3f 45 4b 55 3f 9a e3 87 3f 40 fe 6c 3f
       0.9909845 0.8331798 1.0616333 0.92575455
000030 27 72 88 3f aa 25 68 3f 87 90 7f 3f 76 7a 84 3f
       1.0659837 0.9068247 0.99829906 1.0349872
000040 1f e5 6f 3f 4c 01 88 3f 13 37 84 3f 8c ea 75 3f
       0.93708986 1.0625396 1.0329307 0.96061015
000050 d6 df 7e 3f 73 bd 5a 3f 54 74 70 3f ed ae 5f 3f
       0.99560297 0.85445327 0.939275 0.8737629
000060 2d 3d 73 3f 5e d3 78 3f 83 bc 82 3f b0 4b 87 3f
       0.9501522 0.9719752 1.0213779 1.0569973
000070 3a 0c 7a 3f 46 2d 8e 3f 6b ee 8d 3f 1b a7 8b 3f
       0.97674906 1.1107566 1.1088384 1.0910372
000080 a8 f4 8a 3f e1 b9 7b 3f 2b 70 7a 3f 48 06 68 3f
       1.0855913 0.98330504 0.97827405 0.90634584
000090 51 21 6a 3f d1 d9 6d 3f 3a 7e 6f 3f b0 e1 84 3f
       0.91457087 0.92910486 0.9355198 1.0381374
0000a0 4b 8b 80 3f 62 ea 87 3f 88 c4 84 3f 73 bd 7a 3f
       1.0042509 1.0618403 1.0372477 0.97945327
0000b0 11 13 7e 3f 73 e8 84 3f e0 02 72 3f f1 f5 64 3f
       0.99247843 1.0383438 0.94535637 0.89437777
0000c0 d7 ea 8c 3f 3a bd 58 3f 39 dc 78 3f 6a 5e 8d 3f
       1.1009167 0.84663737 0.97211033 1.1044438
0000d0 69 85 82 3f 8a c4 77 3f de d9 84 3f 53 13 80 3f
       1.0196964 0.9678427 1.0378988 1.0005897
0000e0 58 c6 92 3f 3d 1e 58 3f bc d6 6d 3f 98 6a 83 3f
       1.146678 0.8442114 0.92905784 1.0266905
0000f0 87 64 65 3f 39 79 8d 3f a4 a4 65 3f eb 3e 7c 3f
       0.8960652 1.1052619 0.89704347 0.98533505

bias f4 [64]
000000 7b 45 0e bd 11 50 60 3d 88 f7 06 bc 25 41 c6 bd
       -0.03473423 0.054763857 -0.008237727 -0.09680394
000010 01 55 e3 bd cd dc 91 be d5 87 8a be 09 b5 20 be
       -0.111001976 -0.2848877 -0.27056757 -0.1569406
000020 07 10 80 bd d8 cc 13 be cc 78 92 bd 79 02 88 be
       -0.06253057 -0.1443361 -0.071519464 -0.26564386
000030 2c 8e de be 70 17 f4 bd 17 ed bb bd 8f c9 6c be
       -0.43467844 -0.11918533 -0.09176081 -0.23123764
000040 bc a1 09 be 96 16 ac be 81 5b 30 be d3 04 fb bc
       -0.13440603 -0.33610982 -0.17222406 -0.030641949
000050 19 9c b4 be d3 d7 0e be 75 00 a0 be 81 0b dd be
       -0.35275343 -0.13949518 -0.3125035 -0.4317284
000060 72 01 65 be 87 27 36 be 9f 50 48 be 75 86 a6 be
       -0.22363833 -0.17788516 -0.19562005 -0.32524458
000070 1a 09 85 be e3 3f c3 be f1 a1 2b be 78 0b b1 be
       -0.25983506 -0.3813468 -0.16760994 -0.34579062
000080 1d f2 8a be 3e 07 5c 3c 98 af 53 bd f8 26 ae be
       -0.27137843 0.013429461 -0.05168113 -0.34014106
000090 e4 4d a9 be ef a4 b3 be a0 ee 73 be ab fa 13 be
       -0.33067238 -0.35086772 -0.23821497 -0.14451091
0000a0 7a 68 50 3c d8 26 da bc 87 04 9a be 8f 4c cc be
       0.012720222 -0.02662985 -0.3008158 -0.3990216
0000b0 10 d2 2d be 8c 53 7e be e8 39 7a be 11 39 a1 bc
       -0.16974664 -0.24836558 -0.24436152 -0.019680532
0000c0 cc 65 12 be aa 53 f5 be e4 11 27 be b4 fc 7b be
       -0.14296645 -0.47915393 -0.16315418 -0.24608117
0000d0 5b ae db 3d 2c 22 02 be 63 4a 96 be 21 b8 d7 be
       0.10726615 -0.12708348 -0.29353628 -0.42132667
0000e0 e4 12 55 bd f1 ea 67 bd 3b b0 3e be 2a aa 38 be
       -0.05201997 -0.056620542 -0.18621914 -0.18033662
0000f0 aa f5 99 bd 25 e9 d2 3d 37 e2 bb be 1c ba 6a be
       -0.0751756 0.10298375 -0.36696026 -0.22922558

running_mean f4 [64]
000000 1a ca 8b bd 44 30 1e bf b4 45 20 bf c9 27 1e bc
       -0.06825657 -0.617924 -0.6260636 -0.00965304
000010 76 7b 52 3d 84 1c 81 be 0d a1 cd be f2 51 5a bf
       0.051387273 -0.25217068 -0.40161934 -0.8528129
000020 62 ef 10 3f 0f f4 a1 be 6c f8 33 bf a7 ae 16 bf
       0.5661527 -0.31631514 -0.70300937 -0.5886025
000030 c7 bc 41 3c 6d c4 d7 be d7 32 b2 be c1 43 29 bd
       0.011824793 -0.42142048 -0.34804413 -0.04132438
000040 5e 79 59 3e ae 49 9f be e9 c8 4b 3e 9b 03 8a 3e
       0.21237704 -0.311109 0.1990086 0.26955876
000050 bd 84 21 3f 3a 08 f8 be a2 2e 0f 3f fa 5c bb 3e
       0.6309317 -0.48443776 0.5593053 0.36594373
000060 47 4a 93 bd 0d 88 07 3e f0 5d 78 bf ea 07 73 3e
       -0.07191902 0.13235493 -0.9701834 0.23733488
000070 d5 72 21 bf d2 0f 5b bd d3 65 01 bf 7d 18 31 3e
       -0.63065845 -0.053481884 -0.50545996 0.17294498
000080 94 35 06 3f 4d 66 3b 3d bd 8a 1a bf 35 bd 1b 3e
       0.52425504 0.04575186 -0.6036795 0.15208896
000090 91 d5 04 bf f2 4c 8f 3e 17 21 05 3f 54 bf aa be
       -0.51888376 0.27988392 0.52003616 -0.33349097
0000a0 4b 31 ea be 03 84 ec be eb c2 2c be 47 b4 15 3e
       -0.45740733 -0.46194467 -0.1687123 0.14619552
0000b0 a1 56 e3 3e af a3 a4 3e 40 20 08 3f fd 8d 4f 3f
       0.4440203 0.3215613 0.5317421 0.8107603
0000c0 27 00 9f 3c 8b 12 45 3e e9 4f ec be 53 df 3a 3f
       0.019409252 0.19245355 -0.46154717 0.72997016
0000d0 7f cb 4d 3d ad df 4e bf b3 77 84 3e 7f d3 7b be
       0.050242897 -0.8081005 0.25872573 -0.24592398
0000e0 26 9c 93 bf 2f df 4a bf 67 db 0d 3f 12 36 e8 3c
       -1.1532028 -0.792468 0.55412906 0.028346095
0000f0 7b 39 11 bf 6f 2f 83 bf e0 63 94 3e 5b 68 71 3c
       -0.56728333 -1.024885 0.2898245 0.014734353

running_var f4 [64]
000000 01 c8 90 3e 23 18 36 3e 43 6a ba 3e d5 3b 26 3e
       0.2827759 0.17782645 0.36409196 0.16233762
000010 d1 79 37 3e d9 74 85 3e 1d 28 97 3e cb 32 3d 3e
       0.17917563 0.2606571 0.29522792 0.18476407
000020 33 2b 82 3e 03 e5 58 3e 2f 3b b3 3e 9d 89 89 3e
       0.25423583 0.21181111 0.3500609 0.26862803
000030 e2 10 2d 3e 5a 06 1d 3e 96 de 82 3e e5 8f 8e 3e
       0.16900972 0.15334454 0.25560445 0.27844158
000040 f5 6c 7a 3e 2d 7f fc 3e d4 9c df 3d 27 98 0e 3e
       0.24455626 0.49315777 0.109185845 0.13925229
000050 3b 1a 84 3e 97 d8 d4 3e 39 d5 37 3e 90 e0 7a 3e
       0.25801262 0.41571495 0.17952432 0.24499726
000060 06 c3 94 3e 9e d7 6a 3e 40 88 22 3e f7 09 b2 3d
       0.2905504 0.22933814 0.15872288 0.08693307
000070 bd 38 23 3e 84 e4 89 3e f6 25 b0 3e 13 f1 c5 3e
       0.15939613 0.26932156 0.34403962 0.38660488
000080 f8 ea 4c 3e a9 f1 1f 3e dc 09 ae 3e 07 61 86 3e
       0.20011508 0.1561953 0.33991897 0.262459
000090 b3 3a 28 3e f3 60 26 3e be 20 6f 3e 6a 4f 7b 3f
       0.16428642 0.1624792 0.23352334 0.9816805
0000a0 ef 99 e0 3d cb 37 b0 3e ad 7b d9 3e b1 37 8c 3e
       0.109668605 0.34417567 0.4247717 0.2738624
0000b0 b1 a1 cb 3e 8f 7c ce 3e 9e 0e 0e 3e ea 6b 00 3e
       0.39771798 0.40329406 0.13872764 0.12541166
0000c0 cd 44 d0 3e 98 8f 05 3e 7e 86 af 3e c4 b0 4d 3e
       0.4067749 0.13043058 0.34282297 0.20086962
0000d0 d7 12 0c 3e 37 25 86 3e ee 94 e5 3d 7c d3 d7 3e
       0.13679062 0.26200268 0.11210047 0.42153537
0000e0 61 c5 98 3e 65 a3 29 3f cc 6d 31 3f 36 32 8b 3e
       0.29838088 0.66264945 0.6930816 0.27186745
0000f0 98 44 c3 3e 98 94 28 3e f0 54 70 3e ec 39 01 3e
       0.3813827 0.16462934 0.23469901 0.12619752

weight f4 [32, 64]
000000 19 29 23 bd 2e fa 38 be 97 95 6b bd b8 c8 00 3e
       -0.039834116 -0.18064186 -0.057515707 0.12576568
000010 d3 bc 7d 3d 3b d4 8f bd 11 2b 16 3d 3c c9 f1 3d
       0.061947655 -0.070229016 0.036662165 0.118059605
000020 2b 11 ff bc 67 8e cd be 3a d8 80 3e cc a9 f2 3d
       -0.031136116 -0.40147707 0.25164968 0.118487924
000030 7b 43 8e bc ca 38 9a bc 79 13 fd bd 8f b6 4a 3e
       -0.017366162 -0.018825907 -0.1235723 0.19796203
000040 83 90 9a 3d 95 96 c5 3c af 75 86 3d ae 94 77 3e
       0.07547095 0.024119655 0.06565415 0.2417781
000050 40 0a cc 3c df 17 36 3e ed e9 2b be 22 60 24 3e
       0.024907231 0.17782544 -0.16788454 0.16052297
000060 d1 a4 47 bc e5 2f 21 3d 16 6d 8d bd c6 da ad be
       -0.012185291 0.039352316 -0.06905572 -0.33955973
000070 0d 7b 89 be b4 10 7e bd 18 a8 ba 3e 87 31 34 be
       -0.26851693 -0.062027648 0.3645637 -0.17597018
000080 f5 3f f9 bd 0b cf 15 3e ea be 96 bc a3 d1 b0 bd
       -0.12170402 0.14629762 -0.018401582 -0.08633735
000090 e3 4c 1b 3e aa 43 37 bd fa 6c ef 3d 93 29 e4 3d
       0.15166049 -0.044742264 0.116907075 0.11140742
0000a0 61 44 2e 3d e0 90 26 3e 8c 3e e5 bd ee d9 b7 be
       0.04254568 0.16266203 -0.111935705 -0.35908455
0000b0 23 c1 13 bc c2 60 76 3d b4 0b a6 be 51 f3 82 be
       -0.009018215 0.06015087 -0.32430804 -0.2557626
0000c0 7d 7e 03 bd 6b a0 21 3e 10 08 00 be 55 0a 06 be
       -0.03210305 0.15783851 -0.12503076 -0.13089879
0000d0 b6 ae 81 bd 19 8c a7 3e cf 29 2c bd a5 33 f8 bc
       -0.063321516 0.32724074 -0.04203206 -0.030298064
0000e0 36 33 00 3c f4 eb 27 3e 9c e9 40 3e 3f c8 eb bd
       0.00782471 0.16398603 0.18839115 -0.11512803
0000f0 7a 95 f7 bd 45 b2 4a be 33 47 83 be 8f a0 f6 3d
       -0.12089057 -0.19794567 -0.25640258 0.12042343
000100 02 2c b2 bd b3 f0 e3 3e bd 6e 60 bc 25 22 47 3e
       -0.086998 0.44519576 -0.013698277 0.19446619
000110 20 6c ad 3d 81 df 63 3d de 66 b6 3d eb df 72 3e
       0.08467889 0.05563307 0.08906339 0.2371823
000120 39 c6 ab bb 9f 2d 38 bc 77 6c ca bd 92 d9 82 bd
       -0.005242136 -0.011241346 -0.09883969 -0.063891545
000130 66 b4 ac bd 31 c4 dc bd a2 e0 d0 bb a7 10 65 3e
       -0.08432846 -0.10779608 -0.0063744346 0.22369634
000140 50 27 4e be 09 32 78 3e 46 72 c8 3d d6 39 6d 3d
       -0.20132184 0.24237837 0.09787421 0.057916485
000150 26 77 ee 3d 28 77 1b be 0b 59 2d 3d f1 f6 50 be
       0.116438195 -0.15182173 0.042321246 -0.204067
000160 5d 26 70 3e 04 45 57 bd 7d 41 58 3e a9 24 a6 3e
       0.23452134 -0.052556053 0.21118732 0.32449844
000170 61 d0 0f be 85 c7 9a 3d 29 ca 21 3b 19 3d d5 3c
       -0.14044334 0.075575866 0.0024687147 0.02603011
000180 01 71 37 be 26 44 2d bd c1 a3 af 3e 95 2b 51 3e
       -0.17914201 -0.04230132 0.34304622 0.20426781
000190 3c c0 03 be 5a 7b c0 bd 8e 09 61 be bf 6d 73 3e
       -0.128663 -0.093985274 -0.21976301 0.23772334
0001a0 92 40 17 be bc 17 4d 3d a7 7f 9b 3d 49 28 f3 bd
       -0.14770725 0.050071463 0.07592707 -0.11872918
0001b0 38 33 ad 3e af fc 6e bd 55 0a e3 bc e1 5b 40 be
       0.3382814 -0.058346447 -0.027714888 -0.18785049
0001c0 b7 d2 8f 3e 62 38 b5 bd 46 a8 06 be 9e 4e 38 3e
       0.2809045 -0.08848645 -0.13150129 0.1799874
0001d0 2f eb a9 3d 79 b4 6e 3e b7 c6 5f 3e 0f 66 37 3e
       0.08296811 0.23311032 0.21853147 0.17910026
0001e0 37 1a b4 be fd f2 02 be c9 d3 5d 3e dd 0b bb 3d
       -0.3517625 -0.12788005 0.21662821 0.09133122
0001f0 cc ef dd 3d 37 19 0a bc 61 ef 09 be 49 e6 9f 3e
       0.10836753 -0.008428863 -0.13470222 0.3123038
000200 28 7a dd bd 1e 9a b3 bd ce f2 5e bc 1f 8a 88 be
       -0.10814315 -0.0876963 -0.013607694 -0.26667878
000210 b9 3a ba 3e e2 81 95 3e 95 41 93 bd 48 f2 c4 3e
       0.36372927 0.29200655 -0.07190243 0.38466096
000220 08 39 99 be 25 53 58 be c2 a9 db 3b 1a d4 4b be
       -0.29926324 -0.21125467 0.0067035863 -0.19905129
000230 28 fc c3 3d 31 fe 5b 3e 1b c6 fe 3d e5 b1 dc bd
       0.09569579 0.21483685 0.12440129 -0.10776118
000240 ee 01 88 bd 38 e6 6b be 96 a0 36 3d 40 d0 c8 bd
       -0.06640993 -0.2303704 0.04458674 -0.098053455
000250 48 fc 4a be 4f d4 53 be 82 eb 99 bd 45 b9 51 bd
       -0.198228 -0.20686458 -0.07515623 -0.051202077
000260 b7 4f f0 3d f1 7f a0 be a9 bf e1 3d d4 0f ec 3c
       0.117339544 -0.31347612 0.110228844 0.028816141
000270 68 c7 9c 3c 36 14 d4 be 5d 8f 33 3e dc c9 1f be
       0.019138053 -0.4142167 0.17535158 -0.15604347
000280 d6 bb d0 bd 77 9b 91 3e 69 13 cd bc 6e fb 08 be
       -0.10192077 0.28438923 -0.02503367 -0.13377163
000290 51 f1 28 3d d4 38 07 be 33 cd b6 bd 6e 1c 7e 3e
       0.041245762 -0.13205272 -0.089258574 0.24815533
0002a0 50 db f2 bd a5 98 a9 bd 00 76 81 3e 90 1b 37 3e
       -0.11858237 -0.08281068 0.2528534 0.17881608
0002b0 9c fb ac 3d ab 9c 7a 3d a2 65 70 be cc 06 5b 3e
       0.08446428 0.061184566 -0.2347627 0.21389312
0002c0 26 60 96 bc 3f 40 d0 3d 26 05 33 3e 9e e9 f2 3c
       -0.018356394 0.10168504 0.17482433 0.029652413
0002d0 c0 7c c0 bd 62 ab 02 3d 7c 14 42 be 2b 72 34 3e
       -0.09398794 0.031901725 -0.18953127 0.17621677
0002e0 3a 4f 59 3e e7 1c a2 3c b2 8d 6d be f2 b5 34 3e
       0.21221629 0.019789172 -0.23198584 0.17647532
0002f0 cc 7c d9 bb c2 a8 9c 3b 82 08 8a be b7 a1 d1 bd
       -0.0066371914 0.0047808597 -0.26959616 -0.10235923
000300 b4 fa 6d 3c 70 9f 10 3e a7 f3 07 b9 e6 e1 7c 3d
       0.014525104 0.1412332 -0.00012965371 0.06173887
000310 a9 25 75 be d6 d5 d6 bd 19 96 3a 3d cd 4b 84 3c
       -0.23940147 -0.10490005 0.0455533 0.016149426
000320 3e 4c d9 3c 8a 83 5f 3e 35 ef cb 3d 74 73 ac 3e
       0.026525613 0.21827522 0.099577345 0.33681834
000330 32 77 cc bd a1 14 6a be 5d b2 02 3d 25 2f bd be
       -0.09983672 -0.22859432 0.03190838 -0.3695003
000340 5d 27 8b 3d f3 62 6c be 98 d5 0b be ed f1 84 3c
       0.06794617 -0.23084621 -0.13655698 0.01622864
000350 83 00 03 bd c8 27 16 3e 5f 5d 12 be b8 21 87 bd
       -0.03198291 0.14663613 -0.14293431 -0.06598228
000360 c4 82 49 be d5 37 47 3e 72 39 eb be f3 cf 98 bd
       -0.1967879 0.19454892 -0.45942265 -0.07461538
000370 b0 aa 5c 3e 22 e6 92 3e df 75 da 3c d4 f8 bd 3d
       0.21549487 0.28691202 0.026667533 0.09275976
000380 d8 c5 fa 3c 9e 8c 47 3e f5 e9 a3 bb fc ea e9 3d
       0.030611917 0.19487235 -0.005002255 0.11421773
000390 75 21 23 3d 67 5d 14 3e 41 8e ba be f3 75 d6 bd
       0.03982683 0.14488755 -0.36436656 -0.10471716
0003a0 34 66 94 bd 84 00 be be 97 d7 c9 be 49 6d 95 3e
       -0.07246056 -0.37109768 -0.39422294 0.2918494
0003b0 e7 20 bd bd fe fb 1b be 45 e3 d1 3c 5d 2a 2b be
       -0.09234791 -0.15232846 0.025621066 -0.16715379
0003c0 85 bd 48 3d fc 11 4c be a8 9d a5 bd 15 08 95 bd
       0.049008865 -0.19928735 -0.08086711 -0.07276932
0003d0 5b 2b ca 3e 96 9a a8 3c b2 6e 3b be 90 a0 21 bc
       0.39486203 0.020581525 -0.18303946 -0.009864941
0003e0 22 b6 b5 3d b8 90 49 3d d0 62 85 be a4 04 5c be
       0.0887263 0.04921028 -0.2605195 -0.21486145
0003f0 ee 20 b8 3d 11 4a 4b be 01 5d 24 bc 96 4c 20 be
       0.08990656 -0.19852473 -0.0100319395 -0.15654215

bias f4 [32]
000000 8a fb 87 b9 2c c0 f6 b8 74 84 48 b8 56 1e 0d 39
       -0.00025936618 -0.00011765989 -4.7807072e-05 0.00013458109
000010 15 17 3a b9 0f 3e 25 ba 40 93 81 b9 95 f8 6d 39
       -0.00017746941 -0.0006303498 -0.00024714507 0.00022694685
000020 14 d5 41 3a d0 b5 b8 b8 3e 3b 80 38 c1 ff 64 b9
       0.0007394117 -8.807669e-05 6.11455e-05 -0.0002183905
000030 93 04 29 b9 16 31 2b ba 04 43 a3 ba c9 a2 95 39
       -0.000161188 -0.00065304467 -0.0012455885 0.0002854078
000040 2e db 7a ba 76 55 6e 3a ec b0 49 39 d1 6d ec 37
       -0.00095694035 0.0009091714 0.00019234762 2.818453e-05
000050 da a8 a4 39 75 3b 0d ba 66 ad 15 ba a3 62 59 37
       0.00031406322 -0.0005387583 -0.00057097373 1.2957174e-05
000060 92 5c 30 b9 13 e0 ae 38 1f 9a 0a ba b8 47 ed 38
       -0.00016819153 8.3387036e-05 -0.0005287248 0.00011314399
000070 6e 0d a1 b9 45 5f a5 39 e1 74 ed 39 b8 47 1d ba
       -0.0003071832 0.00031542234 0.00045291244 -0.00059997616

weight f4 [32, 64]
000000 9c 47 a9 be 73 7f 4e 3e eb a1 a9 be bb 65 3e 3e
       -0.33062446 0.20165806 -0.33131346 0.18593495
000010 6f 50 df 3c 1d dd 09 3e 76 98 19 bd 7d fc 9f be
       0.027260033 0.13463254 -0.037498914 -0.3124732
000020 c3 0a 63 bc 65 c8 13 be 11 ec 80 be de 90 38 bd
       -0.013857546 -0.14431913 -0.25180104 -0.04506003
000030 79 c3 40 3e b8 ad 05 3e 43 f7 08 be ad f5 bd be
       0.18824567 0.1305455 -0.13375573 -0.37101498
000040 b5 40 80 3e c3 54 14 be 6a 72 b3 bd 5e 63 30 be
       0.25049368 -0.14485459 -0.08762057 -0.17225406
000050 35 b2 47 3e 31 c3 76 be 2f ce b1 be 90 2a 0a bf
       0.19501574 -0.24097897 -0.34727618 -0.53971195
000060 24 ae 0d 3b c5 e7 77 3d 3e b3 ee 3d ac 5d a9 bd
       0.0021618688 0.060523767 0.116552815 -0.082698196
000070 a9 16 fa 3c d0 76 1e 3e cb 49 38 bd b6 80 bd be
       0.030528383 0.15475011 -0.04499225 -0.3701226
000080 ee 35 3e be b0 c0 8c bd ef 3b 8a bd 79 18 6a 3e
       -0.1857526 -0.0687269 -0.06749713 0.22860898
000090 6a d2 c7 bc 53 4d 5c be ac a4 fc 3d 89 c2 ca 3d
       -0.024392325 -0.21513872 0.12336096 0.09900386
0000a0 4c 2d c2 bd 95 db 94 3e 12 a8 b1 bd bb 33 09 3d
       -0.09481296 0.29073778 -0.08674635 0.0334966
0000b0 19 3f 40 bf 49 ad 5f be 80 e9 d8 bd 4c 95 be bd
       -0.7509628 -0.21843447 -0.105914116 -0.0930582
0000c0 1a 04 15 bd df 27 87 3d e4 89 fa 39 41 0c 04 3e
       -0.036380865 0.06599402 0.00047786452 0.128953
0000d0 86 2d 99 be 10 f0 fa bd f7 30 3f be e7 58 c2 3d
       -0.29917544 -0.122528195 -0.18671022 0.09489613
0000e0 22 29 cf bc 09 8b 1d 3d 54 c2 71 3d d7 5e d0 bd
       -0.025288168 0.038462672 0.059023216 -0.10174339
0000f0 38 ba 95 bc 35 ea be be 1e 96 a7 3d 2b 83 7c be
       -0.018277273 -0.3728806 0.081829295 -0.24659412
000100 88 1b f5 bd 3d 54 a8 3d a9 dd 29 bd bc 69 f9 bc
       -0.11968142 0.08219192 -0.041471157 -0.030445926
000110 17 12 8e be 76 9d b9 be b8 eb a6 bd 17 b6 e1 3b
       -0.27748176 -0.36252946 -0.081504285 0.006888162
000120 6f 34 c2 bd 4e b5 ca 3b 59 ae 3e be c5 fc 42 3b
       -0.09482657 0.006186164 -0.18621196 0.0029752713
000130 73 94 ac bd 01 10 60 be 1e 9f 90 3d e3 28 03 be
       -0.08426752 -0.21881105 0.07061599 -0.12808566
000140 72 0a 41 bd 2f 7c a4 bc b5 24 d7 3b 1f 5f 94 3d
       -0.047129102 -0.020078747 0.006565655 0.072447054
000150 a5 21 78 be 86 80 e2 bb 0b 95 8f 3d 3a 6e a4 bd
       -0.24231584 -0.006912294 0.070108496 -0.080288365
000160 45 ac fc bd 4f c7 79 3c 9a 85 22 be b3 8c 15 bd
       -0.12337545 0.015245273 -0.15871277 -0.036511134
000170 5b b6 84 3d 9b 19 47 be 42 2a 05 3d 6e 4e 1e 3c
       0.06480094 -0.19443361 0.032511003 0.009662254
000180 86 4a 76 be a9 e5 89 be a5 35 f4 bd 59 ce 1a bd
       -0.24051866 -0.2693303 -0.119242944 -0.037794445
000190 57 fe 49 bd 81 fc 09 3c 29 a5 d4 3e 31 8d 15 be
       -0.049314823 0.008422018 0.41532257 -0.14604641
0001a0 d4 3b 51 be 7b 22 9c bc 65 42 9b be f3 f7 a9 3d
       -0.20432979 -0.01905941 -0.30324093 0.08299246
0001b0 a6 09 88 bd 10 dc bc bd d5 22 2b bc 39 41 4b bd
       -0.06642465 -0.09221661 -0.010445316 -0.049622748
0001c0 b0 af 38 3e 4f 1f 1a bd fa 0c a2 bd 8c 2f 26 3e
       0.1803577 -0.037627514 -0.07912631 0.16229075
0001d0 0e 60 06 be 50 4c 87 bd 7f 3a ed be 9b c8 07 be
       -0.1312258 -0.06606352 -0.4633369 -0.13260119
0001e0 a1 00 64 3c 19 f5 43 be f3 16 82 bd 3c b9 f8 bb
       0.013916166 -0.19136466 -0.063520335 -0.007590441
0001f0 b6 df 80 3d 7f 83 37 be 26 8c a5 3d 35 12 bb 3d
       0.062926695 -0.17921256 0.08083372 0.09134332
000200 e9 f5 1b 3e 1b 81 e6 bc b1 96 38 3e af 28 94 bb
       0.15230526 -0.028137734 0.18026234 -0.0045214514
000210 45 80 10 be 81 4a bf bd f8 6a c6 bb 18 bc 1d 3d
       -0.14111431 -0.09340382 -0.006055232 0.03850946
000220 b6 ab d7 3d 50 bd 1c be ab 0e 05 3d a2 eb a1 3d
       0.10530798 -0.15306592 0.03248469 0.079062715
000230 dc e0 43 3e fb 62 31 3e 9d 31 aa 3d 0c 3c b5 be
       0.19128746 0.17322914 0.08310244 -0.35397375
000240 6f ba 70 3e 9c d7 25 3e 0d 35 8d be 43 0b c7 bd
       0.23508619 0.1619553 -0.27579537 -0.09718945
000250 7e 6c ae bd 68 0a 15 3e 6b 0b 91 bd 48 1d 35 be
       -0.08516787 0.14554751 -0.07082256 -0.17686951
000260 e5 2e ba bc 21 0f e6 bd 15 c2 0c be fc 28 82 bd
       -0.02272744 -0.11233354 -0.13745911 -0.063554734
000270 89 cf a2 3d be c9 26 3e 6e a4 94 3c cf 8e 52 3e
       0.079497404 0.16287896 0.018144812 0.2056229
000280 81 59 84 be fd 2b 4f 3d bd 98 97 bd 86 8c 88 be
       -0.25849536 0.05057906 -0.074021794 -0.2666971
000290 91 fd 43 3d 84 47 3c 3e 0d ab 01 be 8c e5 87 3d
       0.04784924 0.18386656 -0.12662907 0.066355795
0002a0 94 71 b5 3d db d1 7c bc 08 b2 5a 3e f6 b8 35 3e
       0.08859554 -0.015430893 0.21356976 0.17746338
0002b0 e9 73 0a bd d6 96 32 3e 74 a2 22 bd 5d ce 82 3e
       -0.033801947 0.17440352 -0.03970571 0.25548068
0002c0 2c d5 cd 3c d9 65 b4 3c 44 4c 8f 3e f8 9f dc 3b
       0.025126062 0.022021221 0.27987874 0.006732937
0002d0 66 1f 2e be c0 0b 8e 3d 4e 1c 00 bf c6 b7 db bd
       -0.17004165 0.06935835 -0.5004319 -0.107284114
0002e0 4a d3 1c 3d 3d fa d1 bd 48 88 3a bd 42 80 3c 3d
       0.03828744 -0.10252807 -0.045540124 0.046020754
0002f0 5f a4 b4 be c5 c3 11 3e 3a 47 5a bc 09 f6 0a 3e
       -0.35281655 0.14234836 -0.013322646 0.13570417
000300 d1 f9 a5 bd 97 82 1a 3d 2b e6 3a 3d 15 c8 01 bd
       -0.08104289 0.037722196 0.04562966 -0.031684954
000310 91 cd bf 3b 66 30 c1 bd 32 78 cf be 9a f3 96 be
       0.005853363 -0.094330594 -0.4052139 -0.29482728
000320 a8 0c dd 3c 23 33 0f 3e 05 53 d0 bd f5 72 2d 3e
       0.026983574 0.13984351 -0.10172085 0.16938384
000330 33 b3 7b 3e 1e e0 73 bc f5 f9 81 bd d6 eb 0e 3d
       0.24580078 -0.014884977 -0.06346504 0.03489288
000340 a0 8e e0 bd 1e a9 9b be d5 80 07 bd 65 49 f9 3d
       -0.109647036 -0.30402464 -0.03308185 0.12172202
000350 8e 07 4a be 8a 9c 78 3d 79 0d 7e 3d 18 fa c7 3d
       -0.19729444 0.060696162 0.062024567 0.097644985
000360 3b df d7 bd 16 f6 89 bd b0 db 32 3e c7 71 e9 3d
       -0.10540625 -0.0673639 0.17466617 0.113986544
000370 20 96 16 3d 41 54 96 3d 41 39 80 be 44 32 74 be
       0.036764264 0.07340289 -0.2504368 -0.238473
000380 f3 52 97 bd 85 35 1a bd 85 6c df 3d f1 c0 09 3e
       -0.07388868 -0.037648696 0.1090937 0.13452508
000390 41 71 48 be f0 e6 af be 7a 71 13 be 8a 14 b8 bc
       -0.19574453 -0.3435588 -0.14398757 -0.022470731
0003a0 86 ed ef 3d 8c cb 17 bd 01 7b 17 ba d6 3c 5f 3e
       0.11715226 -0.03705935 -0.0005778522 0.21800551
0003b0 2d b1 12 3e bc d5 52 3d 70 8c 6f be 17 b4 00 3e
       0.143254 0.051473364 -0.23393416 0.12568699
0003c0 4d 4c c5 3d df 22 e1 3d a1 77 8a bd cd 5e 97 be
       0.09633694 0.10992979 -0.06761099 -0.29564515
0003d0 f0 38 98 be dd ce 50 bc 38 9c dc 3d 3d 32 48 3e
       -0.2973094 -0.012744633 0.10771984 0.19550414
0003e0 9f 57 d8 3d f6 39 94 bc 24 60 b4 bd 6e 91 ca bd
       0.105635874 -0.018094044 -0.088074 -0.0989102
0003f0 6c 4d fe bd 6d b5 04 3e 80 36 0b 3e fd 8d 48 bc
       -0.12417111 0.12959833 0.13595009 -0.012240884

weight f4 [32]
000000 28 63 85 3f b0 04 62 3f 94 ca 8a 3f 30 69 58 3f
       1.0420885 0.882884 1.0843072 0.84535503
000010 e8 86 6e 3f 2d 29 85 3f 03 67 6a 3f b6 3c 8a 3f
       0.931746 1.0403191 0.91563433 1.0799778
000020 3c 26 6f 3f 84 0f 88 3f 04 59 80 3f 74 7e 9c 3f
       0.93417716 1.0629735 1.0027165 1.222609
000030 96 81 7c 3f ce f7 6d 3f 2a e4 78 3f b8 a9 6d 3f
       0.9863523 0.92956245 0.9722315 0.92837095
000040 94 47 85 3f 3d 02 7e 3f 89 96 7c 3f e1 1d 65 3f
       1.0412469 0.99222165 0.986672 0.89498717
000050 9a d1 6d 3f b0 ad 63 3f d3 7c 91 3f 15 88 75 3f
       0.9289795 0.889369 1.1366218 0.9591077
000060 d1 09 63 3f 16 92 7a 3f a2 99 79 3f 65 89 43 3f
       0.88686854 0.9787916 0.9750005 0.7638152
000070 cc 1b 77 3f 9c c1 5b 3f f1 8f 74 3f 86 60 85 3f
       0.9652679 0.858423 0.9553214 1.0420082

bias f4 [32]
000000 20 ea 92 be da 30 0c be 24 1a 7c be c4 d2 44 be
       -0.28694248 -0.1369051 -0.24619347 -0.19221026
000010 bc a6 7b be f2 8e c5 be 80 13 47 be 5e 1a b0 be
       -0.24575323 -0.3858562 -0.19441032 -0.34395117
000020 ae f5 98 be 75 20 92 be e3 41 ba be da 72 a3 be
       -0.2987494 -0.28540388 -0.36378393 -0.31923562
000030 d4 34 87 be 27 8f 89 be 6b 39 c7 be 70 e6 28 be
       -0.26407492 -0.2686703 -0.38910994 -0.16494155
000040 11 eb 49 be 58 cd 38 be 2b 65 c7 be 95 ba d8 bb
       -0.19718577 -0.18047082 -0.38944373 -0.006614039
000050 91 d9 6b be 88 e1 38 be f0 3c c6 be 75 c5 68 be
       -0.23032214 -0.18054783 -0.38718367 -0.22731574
000060 d2 b2 22 bf f3 5e e1 be 2d 97 be be 2d 03 7b be
       -0.6355411 -0.44017753 -0.37224713 -0.2451293
000070 eb e6 45 bd 2d a2 6f be 33 a5 42 be d4 42 12 bf
       -0.048315924 -0.23401709 -0.19008331 -0.5713322

running_mean f4 [32]
000000 78 cd c7 bf b3 60 ac be 57 9d e9 bc b4 19 74 bf
       -1.5609579 -0.33667526 -0.028517408 -0.9535172
000010 63 8c 2f bf 1b 08 05 bf a0 85 08 bf cf 82 de be
       -0.6857359 -0.5196549 -0.53328896 -0.43459174
000020 dc d9 41 bf 64 02 96 be 4b 76 dc be 2f 51 6d be
       -0.7572305 -0.292987 -0.43059 -0.231755
000030 86 64 8b be 72 9c c4 bf 3d 78 39 bf a8 e1 98 be
       -0.2722513 -1.5360243 -0.72449094 -0.29859662
000040 3d ec d5 be b6 9c 8f bf 46 ed e5 3e 79 f5 57 bf
       -0.41781798 -1.1219699 0.44907588 -0.84358937
000050 a9 56 a6 bf fb 67 1a be c9 c2 11 bf ea 74 1d bf
       -1.2995197 -0.15078728 -0.56937844 -0.6150652
000060 d2 ef 6b 3d f7 2d de be c9 75 0d bf 07 37 0b bf
       0.057601757 -0.43394443 -0.5525785 -0.5438084
000070 38 88 93 3e 4f 33 7b be 28 d2 47 be cb 23 4c 3f
       0.28814864 -0.24531291 -0.19513762 0.79742116

running_var f4 [32]
000000 68 d3 52 3f 40 df fe 3e 45 33 35 3f 2d 98 fa 3e
       0.8235383 0.497797 0.70781356 0.48944226
000010 d8 43 aa 3e ff 45 cf 3e e4 d6 14 3f 3b ae b2 3f
       0.33254886 0.4048309 0.581404 1.3959421
000020 3e 0b 22 3f 75 63 23 3f 58 fc 16 3f 5b e2 87 3f
       0.63298404 0.63823634 0.58978796 1.0615953
000030 14 38 19 3f 55 0f 6b 3f ac 44 18 3f d4 12 81 3f
       0.59851193 0.9182027 0.59479785 1.0083871
000040 64 0c 95 3f f5 f7 cd 3e 36 16 39 3f 80 7d d4 3e
       1.1644406 0.4022824 0.72299516 0.41502
000050 ba 0d 24 3f b8 b8 04 3f 5b 41 8f 3f 49 11 b7 3e
       0.64083445 0.5184436 1.119182 0.35755375
000060 91 3d 37 3e d9 6e 52 3f 2d 67 f0 3e 38 81 ee 3e
       0.1789458 0.8220039 0.46953717 0.4658296
000070 07 f6 49 3f b6 b2 ed 3e 68 5b 27 3f d9 26 1a 3f
       0.7889103 0.46425408 0.6537385 0.60215527
