gcn-main/simpl_1.pt (torch, 132253 bytes, 90 tensors)

loss_weights f4 [3]
00000000: 450f 0a3f 4a4d 0c3f 3ba9 213f
0.5392955 0.54805434 0.6314885

weight f4 [4, 2]
00000000: f78f d13e f199 efbe ab9d 94bd 7091 fbbe
00000010: 6407 183c 8161 f9be bace 42be 2a42 3abf
0.4093015 -0.46797135 -0.07256635 -0.49134398 0.009279106 -0.48707202 -0.19024172 -0.7275721

bias f4 [4]
00000000: 5014 083a 4f33 74b9 b421 5339 2786 a7b9
0.0005191015 -0.00023288767 0.00020135083 -0.00031952673

weight f4 [4, 2]
00000000: edc4 013e 876f 3c3f f80f e03e 50b6 463e
00000010: d8f4 f7bc 9cf9 0d3f e8d1 643d a2db d9be
0.12672777 0.7360768 0.43762183 0.19405484 -0.030268118 0.55459 0.055864245 -0.4255038

weight f4 [4]
00000000: ab19 4f3f 957c 6a3f 7403 8a3f 6a0b 553f
0.8089854 0.9159635 1.0782304 0.8322054

bias f4 [4]
00000000: d92a f83e bf5a cf3e a3db 723e f5e0 debd
0.4847019 0.4049892 0.23716597 -0.10882751

running_mean f4 [4]
00000000: 83bd 0e41 aad4 623f 94df 013f ec83 5fc1
8.9212675 0.8860575 0.5073178 -13.9697075

running_var f4 [4]
00000000: 0a28 2842 2d3e 8b41 9d12 2e41 a0e5 a142
42.0391 17.40536 10.879544 80.94849

weight f4 [8, 4]
00000000: 2adc 933e b311 883d 8370 023f 14d3 f2be
00000010: 1377 f33c 54fa 963e 5f3d 81be 41f0 a63e
00000020: 9ba4 81bd 951e a43e 4915 953d 5ac4 803e
00000030: 0750 c03e afa6 633e 56bf 40be bdf2 f8bc
00000040: 4f88 9c3e b213 463d d7e4 2a3e 8a85 ad3d
00000050: 9594 f2be b881 ae3d af4d 9ebe f825 ab3e
00000060: ba22 e3bd 3836 e83e a770 493e 2d30 6f3e
00000070: 722d 503e 7932 33bc a8b9 8abd 9a7e 84be
0.2887891 0.06644001 0.5095293 -0.47426665 0.029719865 0.2948786 -0.25242135 0.32605174
-0.06330224 0.32054582 0.072794504 0.25149804 0.37561056 0.22231553 -0.18822989 -0.030389184
0.30572745 0.048358627 0.16688858 0.08472736 -0.47378984 0.08520836 -0.30918643 0.33427405
-0.11090608 0.45353866 0.1967188 0.23358221 0.20329836 -0.010937327 -0.06773692 -0.2587784

bias f4 [8]
00000000: 3c00 9b3b 095f 273a 8f4a 173b ddf3 9fba
00000010: f0c5 45bb e598 aa3a f6de 4dbb f69e 99bb
0.0047302525 0.0006384706 0.0023085212 -0.0012203414 -0.0030177794 0.0013015537 -0.0031413413 -0.004688139

weight f4 [8, 4]
00000000: 4fe4 313e 5f73 4ebe cef5 28be 9e16 bebe
00000010: 97a1 9a3e 19e1 79be ac85 3bbe b18e bdbe
00000020: 5787 97be f814 913d c8f9 24be f1a0 b53e
00000030: 7c5c 04bf 25bc 203e 706e 67be a71c 48bd
00000040: ced6 053f c8af f93d c2a3 883e c6ec d93e
00000050: c635 3ebb d9d1 8b3e 9001 9e3d e3bc 413e
00000060: ea7d e3bd a71d f3be cb11 e63e dcb1 003d
00000070: 5872 d7bd 265e 923e 64f1 de3e fc42 bfbe
0.17372249 -0.20161198 -0.16500017 -0.3712663 0.30201408 -0.24402274 -0.1831271 -0.37022927
-0.29595444 0.070840776 -0.16110909 0.3547435 -0.5170362 0.15696771 -0.22600722 -0.04885545
0.5228089 0.12191731 0.26687437 0.42563456 -0.002902375 0.2730854 0.07715142 0.18919711
-0.111080006 -0.4748356 0.4493545 0.03141962 -0.10519856 0.28587455 0.4354354 -0.37355793

weight f4 [8]
00000000: ff47 823f ddc9 603f a0f3 893f 6060 883f
00000010: 6ac0 693f 5d54 873f 57f3 6e3f d4d6 773f
1.0178221 0.8780802 1.0777473 1.0654411 0.91309226 1.0572621 0.9334006 0.96812177

bias f4 [8]
00000000: f7c1 323e ef99 613d b180 ed3d ad7e 373e
00000010: c428 3d3e 1bcd 79bd 8978 603e 34eb b23e
0.17456804 0.055078443 0.115968116 0.17919417 0.18472582 -0.06098662 0.2192098 0.3494507

running_mean f4 [8]
00000000: e57b 213e 5a36 97bc b5a5 0b3e 41e8 d4bd
00000010: 8561 753f 9945 5abd bbfc 8a3e 49b8 773e
0.15769918 -0.018458534 0.13637431 -0.103958614 0.9585193 -0.05328903 0.27145943 0.24191393

running_var f4 [8]
00000000: 028f b83e eae7 483d 8785 513e 011e 3d3e
00000010: 09b9 b63e 3963 7d3e 0d33 003e 84cd 5c3e
0.36046606 0.049049295 0.20461093 0.18468477 0.35688046 0.24744882 0.12519474 0.21562773

weight f4 [64, 8]
00000000: 0505 b3be 8eb7 d33d 9f41 2c3e 2114 24be
00000010: 1333 b63e f5f3 083e 48fc 18be 86e5 4cbe
00000020: 299d d53d 2dc4 6fbe a977 4d3e 923a bdbd
00000030: 044f 823e 8e41 debe 4676 b43e 7fe5 1bbe
00000040: 7ce2 823e bca7 c5be 1b44 c2bd 4428 4b3e
00000050: 5ba3 713e 7f22 8c3d e1bf f9bd b95f 98be
00000060: c7b5 8ebe 63e5 5dbe 70d5 a6be d0bc f0be
00000070: b5a7 b4bc 4356 f3be 218e 763d 9451 8a3e
00000080: 36ab a4be d31f 38be a809 043d 1afd bbbe
00000090: d375 41be eb20 083d fd88 8e3e 368d 36bd
000000a0: 94c7 033d 9554 213e 22ac 97be 8919 7d3e
000000b0: 9d4d 003e 30c6 46be a0aa bc3d 8724 763e
000000c0: 1cca 2d3e 0842 c43e d27d 283d 6578 f33d
000000d0: 0b01 b43d 131c d63d 0e2f 4fbe 7796 d3bc
000000e0: 559a 073e 911f 27be e190 06bc 0636 af3d
000000f0: 8a29 86bc 0f53 bf3e 61f3 013e 4bec 78bd
00000100: 7f6a 683d a7af ec3c f99c e23d 37f3 003f
00000110: eebd 11be db86 cabe 61ae 9bbe 4e1b 16be
00000120: 6294 cfbd 8c7c 763e 71be cc3e 5183 b5bb
00000130: 5d8d 513e 7a84 643e d0e3 573e 592c 4e3e
00000140: d6ee 0a3d 6b98 0e3c 4e60 cf3c cd18 a4be
00000150: c59f 8f3e 37a8 d0bd 3d02 68bd 3184 d1bc
00000160: 30b6 7bbe 5ef6 403e 6999 603e 3b36 32be
00000170: 81ca 9dbe 350d 353e c262 babe 573a eebd
00000180: 93c5 f9bd 9618 363e 615b 1dbd e3b2 56bd
00000190: 1d07 2dbe 759f 56bb b3c8 f7bd f7f1 5ebe
000001a0: 7dce 8bbe b9de dfbb ff8a debd 8e9f d43d
000001b0: 6bcf ec3d 1c13 903d 6e7a 103e a782 d43c
000001c0: 3456 08be 715e e1bd 0c91 8b3d 4090 94be
000001d0: 1090 1c3d 588a 24be c880 bbbd 973f 05be
000001e0: 405c 673d d999 56bd aed5 4c3e f53e 74be
000001f0: ff71 0ebe 1ea8 23bc 4f8a 6e3e 5f17 923e
00000200: 55a5 a33d 5d60 b7be d4f8 c13e d91d 813c
00000210: 33b8 2d3e 6d10 813e ac5e 953e c82a 8c3e
00000220: 95fe 8fbe 4207 b5be 4ac1 1ebf fe6b adbe
00000230: 4982 253e 5b19 0bbe 1307 8d3d 0f27 06be
00000240: f56b 3dbe 7688 68be b251 063e 4cd9 3b3e
00000250: 3c48 70bd 1785 afbd 2ce3 adbe 23ff a23e
00000260: a7e0 33be f737 81be 3e68 03be 689c ac3e
00000270: 7866 a63e 7060 3b3e 7ce2 48bb aece 1b3e
00000280: 30cf e1be 7449 043e 010d b23e f06f 76be
00000290: c799 f1bd 10a1 84be f9e0 4c3e d1ce 86be
000002a0: ede4 493e 90e9 61be ae6e 7c3c 59ad f93d
000002b0: 3183 543e b059 51be 0ca9 d53e 381d 98be
000002c0: ce0a f13e bb65 dcbc d43f 883e 17fb 173e
000002d0: 2065 993e 45c1 a23d 10db 683e 259e 3abe
000002e0: 2996 ce3c 3156 703e a2a6 e23d 6b35 6a3e
000002f0: fb1a c73c 93b9 a93e 8104 18be 03ec 2e3e
00000300: 4f07 973e 9a33 49be ecb9 123e cbc3 c23d
00000310: f1de ab3e 247c 6bbd 3d41 2ebe 0734 373e
00000320: d484 7fbe 2081 93be 8b2e 96bd c6db 93be
00000330: 4d04 843e 5fa3 99be 1429 86bd b2e0 fc3d
00000340: 2751 5a3e 91e6 c1bd 4e48 e23d 78a6 c6be
00000350: f0d0 34be c855 ac3e 6c4e 5e3e dc05 a13d
00000360: a410 adbe 5c2c 70bd b14d ff3d 59f1 8e3d
00000370: c3cc 9c3e 2fa5 9abe fbf5 b5be 0b0b efbd
00000380: 21a6 b13e 9a05 c43b d3cd 2fbd b18d fa3c
00000390: 9ad6 233e 5651 873d 4e79 043e 13fc 35be
000003a0: d82a 8f3d edd3 c93d 6bbc 98be 7bb1 0dbe
000003b0: 3777 f3be 1ab7 3e3c 812b 4ebe d720 873e
000003c0: a2bf 10be cd37 1dbd 6c67 403e b948 583b
000003d0: 6691 e63d aa7f 963e ef88 febb 6725 48be
000003e0: 2a43 79bd ab6e 57be d5ae 68be 766e 3e3e
000003f0: 7270 adbb e31f 8e3e a633 83be 2e8f a83e
-0.34964767 0.10337745 0.16821907 -0.16023304 0.35585842 0.13374312 -0.14939988 -0.20009431
0.104303665 -0.23414679 0.20065178 -0.09239687 0.2545091 -0.4340939 0.35246485 -0.15224265
0.2556342 -0.38604534 -0.09485646 0.19839579 0.23597471 0.06842517 -0.12194801 -0.2976053
-0.2787306 -0.21669535 -0.32584715 -0.47019053 -0.022052625 -0.4752675 0.06019414 0.27015364
-0.32161874 -0.1798089 0.03223577 -0.3671654 -0.18892603 0.033234518 0.2783889 -0.044568263
0.032172754 0.15754922 -0.29623514 0.24716772 0.12529607 -0.1941154 0.09212232 0.24037372
0.1697163 0.38331628 0.041135617 0.11888198 0.087892614 0.104545735 -0.20232794 -0.025828583
0.13242467 -0.16320635 -0.008213253 0.08555226 -0.01637723 0.37368056 0.12690498 -0.06077222
0.056742188 0.028892351 0.110650964 0.50371116 -0.14232609 -0.39556012 -0.30406478 -0.14658853
-0.10135724 0.24070948 0.39989045 -0.005539336 0.20464082 0.22316161 0.21082997 0.20134105
0.033919178 0.008703331 0.025314476 -0.32050171 0.28051582 -0.101883344 -0.05664276 -0.02557573
-0.24581218 0.18843982 0.21933521 -0.174035 -0.3081856 0.1768082 -0.3640347 -0.11632221
-0.121958874 0.17782816 -0.038417224 -0.052416693 -0.16897245 -0.0032748852 -0.12098827 -0.2177199
-0.27305976 -0.0068319705 -0.10866355 0.10381995 0.11562999 0.07034895 0.14109203 0.025941206
-0.13314134 -0.110043414 0.06814775 -0.29016304 0.038223326 -0.16068399 -0.091554224 -0.13012539
0.05648446 -0.052392814 0.20003387 -0.23852141 -0.13910674 -0.009988813 0.23294948 0.28533456
0.07990519 -0.35815707 0.37885153 0.015761303 0.16964798 0.25207844 0.2917379 0.2737639
-0.28123918 -0.353571 -0.62013686 -0.33871454 0.16162981 -0.13583891 0.06886115 -0.13100837
-0.18498214 -0.22708306 0.13117102 0.18344611 -0.058662638 -0.08570307 -0.3396238 0.3183528
-0.17566167 -0.2523801 -0.12832734 0.33713078 0.32500052 0.18298507 -0.0030652573 0.15215561
-0.44103384 0.12918645 0.34775546 -0.24066138 -0.11796909 -0.2590413 0.20007695 -0.26329663
0.19716235 -0.22061753 0.0154072475 0.121912666 0.2075317 -0.2044437 0.41730535 -0.29709792
0.47078556 -0.026903978 0.26611197 0.14841877 0.29959965 0.079470195 0.22739816 -0.1822439
0.025218086 0.2347038 0.11066939 0.2287194 0.024304857 0.33149394 -0.14845468 0.17082219
0.29497764 -0.1964859 0.14328736 0.09510001 0.33568528 -0.057491437 -0.17017074 0.1789094
-0.24953014 -0.28809452 -0.07333096 -0.2887861 0.2578453 -0.30007455 -0.06550804 0.12347545
0.2132002 -0.09467805 0.11048947 -0.3879888 -0.17657828 0.33659196 0.21709603 0.07862446
-0.33801758 -0.058636054 0.1246599 0.06979627 0.3062497 -0.3020415 -0.3553923 -0.11672028
0.3469706 0.005982113 -0.0429209 0.030585142 0.15999833 0.066073105 0.12936899 -0.1777194
0.06990594 0.09854875 -0.29831252 -0.13837235 -0.4755189 0.0116403345 -0.20133783 0.26392242
-0.14135602 -0.038383294 0.18789452 0.003300233 0.11258201 0.29394275 -0.0077677886 -0.19545518
-0.06085507 -0.2103831 -0.22722943 0.18596825 -0.0052929455 0.27758703 -0.25625342 0.32921737

bias f4 [64]
00000000: 2f33 4db9 5033 fdba e8de 8139 f523 c2b9
00000010: 8d10 04bb cbd3 00b8 90a7 a93a 969f eeba
00000020: 0350 5ab9 966a aeba e74c 60ba 3897 5b3a
00000030: 6b7f f8ba 2cd6 183b 61dc d1ba 07d3 bcb9
00000040: 3ab1 8a3a 4da0 1d39 cc62 b83a 5b20 56bb
00000050: 7590 a13a 308b 843b 7cee 3f3a b33d 1338
00000060: 4288 3db9 2e52 1039 dcb2 6e37 88c6 163a
00000070: 901d 8439 6eba b6ba 7852 023b 6cbf 653a
00000080: 9a17 cd3a 31f3 d638 2e52 c13a 0317 5fbb
00000090: 4c2b 573a c4fd 65ba 1614 12bb d2ed f8b9
000000a0: 2ec6 fa3a cf45 e83a 5901 483a 5abf ccba
000000b0: 09e2 dd3a e4ac 18ba f3e0 b839 6451 62ba
000000c0: 86c9 43ba 083c 19bb 6322 0dba 1e3b c33a
000000d0: 968e 473a b193 ae3a 1c1f b2b9 86a3 c9ba
000000e0: 0301 afb9 19bc 27ba d4ee abb9 dc95 b9ba
000000f0: 7f6c 09bb 9f90 21bb b719 cd39 4653 1bba
-0.00019569391 -0.001931766 0.00024770875 -0.00037029354 -0.0020151467 -3.0714826e-05 0.0012943614 -0.0018205519
-0.00020819907 -0.0013306912 -0.0008556381 0.00083767204 -0.0018958872 0.0023321016 -0.0016011113 -0.00036015382
0.0010581382 0.00015032403 0.001406753 -0.0032673094 0.0012326377 0.0040449128 0.0007321609 3.5104993e-05
-0.00018075205 0.00013763524 1.4227549e-05 0.00057516294 0.00025199028 -0.0013941058 0.001988558 0.0008764181
0.0015647293 0.00010249613 0.0014749223 -0.0034040816 0.0008208051 -0.0008773471 -0.0022289804 -0.00047479436
0.0019132548 0.0017721 0.00076295953 -0.0015620992 0.0016928326 -0.00058241026 0.00035262815 -0.0008633344
-0.0007468689 -0.0023381729 -0.0005383847 0.0014894938 0.00076124945 0.0013319162 -0.00033973984 -0.0015383817
-0.00033379355 -0.0006398573 -0.00032793602 -0.0014159041 -0.002096921 -0.0024652851 0.00039119806 -0.00059251895

weight f4 [64, 8]
00000000: 5e2a 64be 5c18 f5be 9de4 d8bd 662b bdbd
00000010: c923 093d 9e22 58be 4158 b53e 38a1 36be
00000020: 886a 8cbe 35a6 643e 5aac 19be 6892 45be
00000030: f812 893e 7308 af3e 4d59 db3d 936d a3be
00000040: ed17 0fbd 85fc 8a3e afe8 c63d 0302 ae3d
00000050: 433b b93e cc13 443e 6559 db3d 2940 053c
00000060: 5d56 673d ade7 b33d c647 40be ecc1 f0bd
00000070: adf8 aabe 9c26 2b3e aeac 2b3e 9b95 b53e
00000080: 749d 133e dbc6 943e e8ff 90be 118c bfbd
00000090: 3661 4e3d 9fcc 2c3e eeb2 20be cfb7 913e
000000a0: 24f8 a9be 316c a2bd 6499 793e 60a6 403d
000000b0: 9248 763e e069 c53e f940 2ebe e385 d0bc
000000c0: 0bf5 cebd 1e03 8b3d 1b35 cb3d 46c6 4e3e
000000d0: 2a89 5cbe f478 93be 3ee1 bf3e 113a 9f3e
000000e0: fb4e bebe e861 e0bc f859 73be 1648 22be
000000f0: 3733 303e eb24 d73d 386d 133e 824b c13e
00000100: 031f b83e 7eec 4f3e 002e 81bd 1e28 49be
00000110: 0a89 15bc 8be8 e8bd 5f8f 403e fd17 933e
00000120: 306b 81be 6f81 15be 6080 0bbd 41e2 1d3e
00000130: df57 303e 8c0e 08be abcc 5e3c 8125 c23e
00000140: 7b74 b6bd 9045 82be 7da3 e33d 31b0 393e
00000150: dc54 9ebe 59ca 7abc 0301 c1bb d9f5 7d3e
00000160: 1e46 4dbd 14fe dabc cdc6 22bc 0a91 bd3c
00000170: cb36 443e f885 fc3b e1ef 0cbe c977 923e
00000180: b441 f73c 5a5e 913d 8ada 08be fc46 15be
00000190: c811 95be 3f5b 233e be52 983d 06f8 38be
000001a0: daaa 31bc 49f9 c13c b902 0e3d 719b 8abd
000001b0: be74 bdbd f337 bbbe 4236 e43c 0f02 a73e
000001c0: 738f cdbc 882c 483e ee84 ffbd 1a91 52bc
000001d0: d288 6cbe 51ba c03e 5c8d edbd 6db9 85bd
000001e0: a176 cebe 3578 2a3d 002a 1ebd 68fd 6a3c
000001f0: 00a0 dabd a61d 81be 2c77 1a3e 585c 8fbd
00000200: ac38 643e 76c2 5ebe ec88 4fbc dcb6 75be
00000210: b397 253e 8505 88be 50cb 0dbe d099 3fbe
00000220: 8017 2e3e 4691 ea3d b7c7 65be 9734 25be
00000230: 77c6 643e 4e63 3fbd d9ee 8b3d 6a87 8c3e
00000240: bf80 c83d 6839 2abe e9c4 773e 9151 6b3e
00000250: 4feb 693e 631e 39be 0233 163e 95c0 cbbd
00000260: 34a9 0a3e 4b1b 9a3d ccba bebe 04f6 b13e
00000270: a5ac a2be ff17 703e 2849 acbe 02ca 953e
00000280: 0b43 8e3e b90e 0c3e 9f77 c73d e5fa 9cbe
00000290: c210 ee3c fe12 2d3e a14b 29be f72a c83e
000002a0: c038 84be 1003 9f3e cf03 bfbd 6684 1bbe
000002b0: 0624 2cbe 2268 363e 3546 60be 2c46 aabb
000002c0: c20d dd3d 0d39 923e a36f abbe 527b bb3d
000002d0: 4a89 313e 5c0f 753e 5108 39be 90df 3c3e
000002e0: a15f 77bb a8f8 943e d196 b6be e815 373b
000002f0: 5720 93bd 56fa c93e d1fb 8bbe a423 8dbe
00000300: badb 95be 3c3b 71be e6af 87be 28b9 7a3e
00000310: 9e74 82bd 65d7 29be 79c4 c5be 57a1 eabd
00000320: 5186 16be 7ba1 c93e 45b2 acbe d721 363e
00000330: 69fb 54bc da72 903c 5488 4abe a88b c63e
00000340: 25f2 4ebe c509 3d3e 1996 993e b5bc d13d
00000350: 03a3 873e 4bac 26bd 8ba7 2a3e c3af 8f3e
00000360: ea46 963d 0dce 3abe cb2f 69be eda4 4dbc
00000370: 3300 23be e5f0 643e 7b19 de3e 19d4 63bd
00000380: 23f2 45bd 7456 37be ac27 17be 4c01 583e
00000390: 2db9 4f3e 114e 663e f72c 7cbe d5cf ccbd
000003a0: 9fd7 123e 83e9 7b3e cefc 983c 4a3c 81be
000003b0: a0cb 823d e419 9abd e7c0 abbe e9ad df3d
000003c0: c774 4cbe c590 b33e b298 66be 5101 8abe
000003d0: 62b2 0abd 1712 80be 4140 843e f611 85bd
000003e0: eee5 c1be 3465 703e a542 44be 3ce0 41bd
000003f0: 6574 343e 47ea b73e f3c0 cfbc 56e9 f1bd
-0.22281787 -0.47870147 -0.105904795 -0.09236793 0.033481393 -0.21106955 0.35418895 -0.17834938
-0.27425027 0.22329028 -0.15007153 -0.19294131 0.26772285 0.34186134 0.10710392 -0.31919536
-0.034934927 0.27145782 0.097123496 0.084964775 0.36178026 0.19148177 0.1071041 0.008132973
0.056478847 0.08784423 -0.1877738 -0.11755738 -0.3339285 0.16713947 0.16765091 0.35465702
0.14415532 0.29057965 -0.2832024 -0.093528874 0.050385676 0.16874932 -0.15693256 0.28460547
-0.3319713 -0.07930792 0.2437492 0.047033668 0.24051121 0.3855734 -0.17016973 -0.025454467
-0.10105332 0.06787704 0.099222384 0.20192823 -0.21536699 -0.28803217 0.37476534 0.3109899
-0.37169632 -0.027390435 -0.23764789 -0.15847811 0.17207037 0.105050884 0.14397132 0.3775292
0.3596116 0.20305058 -0.06307602 -0.1964421 -0.009126911 -0.11372479 0.18804692 0.2872924
-0.2527709 -0.14600156 -0.034057975 0.1541834 0.1722102 -0.13286799 0.013598601 0.37919238
-0.08908936 -0.25443697 0.11115167 0.18133618 -0.30924118 -0.0153070325 -0.005890013 0.24800815
-0.050115697 -0.026732482 -0.009935093 0.02314045 0.19161527 0.0077064 -0.13763382 0.28607014
0.030182697 0.07098074 -0.13364616 -0.1457786 -0.2911513 0.15952776 0.07437657 -0.18063363
-0.010843957 0.023678439 0.034670565 -0.06767929 -0.092507824 -0.36566123 0.027857903 0.32618758
-0.025092816 0.19548237 -0.12476526 -0.012851978 -0.23099068 0.37642148 -0.11599228 -0.06529508
-0.40324882 0.041618545 -0.038614273 0.014342643 -0.10675049 -0.25217932 0.15084523 -0.07000035
0.22287244 -0.21753868 -0.012666922 -0.23995537 0.1617115 -0.2656671 -0.13847089 -0.18711019
0.17001152 0.1145349 -0.22439466 -0.16133343 0.22341333 -0.046725564 0.06832666 0.27447063
0.09790181 -0.16623461 0.24196209 0.22980334 0.2284367 -0.18077998 0.14667895 -0.099488415
0.13541108 0.07524737 -0.3725189 0.34758008 -0.31772342 0.23446654 -0.33649564 0.29255682
0.27785525 0.13677491 0.09739613 -0.30660167 0.029060725 0.16901776 -0.16532756 0.3909528
-0.25824547 0.31057024 -0.09326898 -0.15187225 -0.16810617 0.17813161 -0.21901782 -0.0051963534
0.1079364 0.2855915 -0.3348361 0.09154381 0.17337528 0.2393164 -0.18069579 0.18444657
-0.0037746208 0.2909596 -0.3566194 0.002793664 -0.07183903 0.39448804 -0.27340558 -0.27566254
-0.292692 -0.23557752 -0.26501387 0.24484694 -0.06369899 -0.16586073 -0.3862646 -0.114565544
-0.14699675 0.39381012 -0.3372976 0.17786346 -0.012999394 0.01763289 -0.19778568 0.38778424
-0.20209558 0.18460758 0.29997328 0.10241071 0.26491556 -0.040691655 0.16665475 0.28063783
0.073377445 -0.18242665 -0.22772138 -0.012551528 -0.15918045 0.22357519 0.43378815 -0.055622194
-0.048326623 -0.17904073 -0.14761227 0.21094245 0.20285483 0.22490717 -0.24626528 -0.10000578
0.14340065 0.24600796 0.018675234 -0.2524131 0.06386495 -0.075244695 -0.3354561 0.109218426
-0.19966422 0.35071388 -0.22519186 -0.2695413 -0.033861525 -0.250138 0.25830272 -0.064975664
-0.37870735 0.23476106 -0.19166048 -0.047332987 0.17622526 0.35920927 -0.02536056 -0.118120834

weight f4 [64]
00000000: ef4f 7a3f 1853 823f 124e 693f c5ad 803f
00000010: d1de 8f3f d7ad 5f3f 01af 5d3f a44c 803f
00000020: e079 7b3f 20c7 803f 5180 933f 7658 853f
00000030: e10d 683f c526 713f dcbf 813f ac30 8f3f
00000040: 9009 8a3f b822 763f 1bf5 833f 4457 6e3f
00000050: 02ff 743f 2491 843f 9bc0 493f c3ad 683f
00000060: 2c65 8f3f 037e 783f b2a7 853f 4fe6 843f
00000070: d8ca 7c3f 19a2 813f 9f56 913f 2118 813f
00000080: 3941 823f 8ac3 773f 9710 833f 5a75 823f
00000090: 5a19 8a3f 56b9 883f 905b 7a3f 660c 5a3f
000000a0: c2ce 7b3f 126d 893f 1c1c 743f ee89 8d3f
000000b0: d5ca 933f cb6d 903f 55e8 933f 57c4 753f
000000c0: 6224 793f e590 803f d755 5e3f 4c9d 843f
000000d0: 5643 843f bb4a 783f 4316 723f 347c 583f
000000e0: 02cc 803f c90e 803f ae7f 8c3f 0c81 6f3f
000000f0: 778a 833f a64e 733f b53e 733f 7d4c 7e3f
0.9777822 1.0181608 0.9113475 1.005303 1.1239873 0.87374634 0.8659516 1.0023389
0.9823284 1.0060768 1.1523534 1.0417621 0.9064618 0.9419978 1.0136676 1.1186728
1.0784168 0.96146727 1.0309175 0.93101907 0.9570161 1.0356793 0.7880952 0.9089014
1.120275 0.9706728 1.0441802 1.0382785 0.98747015 1.0127593 1.135456 1.0085489
1.0176154 0.96782744 1.0239438 1.0192063 1.0788987 1.068156 0.97795963 0.8517517
0.9836236 1.0736411 0.9535539 1.1057718 1.1546274 1.1283506 1.1555277 0.96002716
0.9732114 1.0044218 0.8684973 1.0360503 1.0333049 0.9698903 0.9456522 0.8456452
1.0062258 1.0004512 1.0976465 0.93556285 1.0276631 0.95041883 0.9501756 0.9933546

bias f4 [64]
00000000: a905 29be 1365 acbd 895b dfbd 6e14 6f3d
00000010: a1fe d5bd 983b 18be 070a 573d df39 a0bd
00000020: 263b 46bd e690 d13c 13f1 5d3c e77e aebd
00000030: 9a35 16be 7d95 4fbd 0f8f cfbd 41f4 06be
00000040: 163d c6bd 6f53 e6bc f0e8 60bd 4977 123e
00000050: 346f cbbb 7911 78bd 4268 65be 5db7 54be
00000060: ea39 0a3d af0e c8bd a74e acbd 8dea aaba
00000070: 3b76 90bd 2ca0 9ebd 1b63 f2bd 2a98 c8bd
00000080: 0edf dc3c 933d 8dbd f93d 3abe 38e3 47bc
00000090: a69a 58be 8531 febc 1c8f ad3d 0243 70bd
000000a0: 090b d2bd 9bf9 97bd 7533 03be 8fda 5ebd
000000b0: b3d4 a6bd b791 8d3d 8354 7fbd 4561 69bd
000000c0: 91aa 12bd bab9 5bbe 50ea 2dbe 1170 6bbe
000000d0: 65ba ddbd aaaa b13d 231a 96bd fd94 213d
000000e0: 7e27 463c 432f 9c3d 4932 4e3d 5ef4 1d3e
000000f0: 4a73 06bd 7907 ccbc 9081 6ebd 7018 23bd
-0.16506065 -0.08417716 -0.10906131 0.058369093 -0.10448957 -0.14866483 0.052499797 -0.07823538
-0.048396252 0.025581788 0.013546246 -0.085202985 -0.14668885 -0.050679673 -0.10134708 -0.13179113
-0.0967962 -0.028115956 -0.054909647 0.14303316 -0.006208325 -0.06056354 -0.22403052 -0.20773073
0.033746637 -0.09768426 -0.08413439 -0.0013039872 -0.07053801 -0.07745394 -0.11835309 -0.09794648
0.02696183 -0.0689651 -0.18187703 -0.012200169 -0.21152744 -0.031029472 0.084745616 -0.058657654
-0.10256011 -0.07420655 -0.12812598 -0.054407652 -0.08146038 0.069125585 -0.062336456 -0.05697753
-0.035807196 -0.21457568 -0.16983914 -0.22991969 -0.108265676 0.0867513 -0.07329204 0.039448727
0.012094377 0.07626202 0.050340924 0.1542525 -0.032824792 -0.024905907 -0.05822903 -0.039818227

running_mean f4 [64]
00000000: f2f5 fcbe b615 9abd 3a30 cb3e 40af 06bf
00000010: 6a47 4ebe d0fb 9f3e 8f20 0a3f bb26 4a3e
00000020: 2cdc 6d3e 5d26 3c3f dc84 a3bd 8bcb 2ebe
00000030: ff68 05bf cb28 5a3c 047c debe 4897 eebd
00000040: 8f46 8a3e 7789 14bf d72c 5a3e db4d 863e
00000050: 334b bfbc 3bd1 f4bd c641 4f3f ec57 4e3e
00000060: 3530 70be f352 87be 89e7 1f3f 0ada 89be
00000070: 0e6c 2e3e 229c b0be a7e3 3dbe 0796 33bd
00000080: 8626 453e c100 be3e 813b cfbe 13c1 083f
00000090: b4ef 45be 2de0 99bd 7e60 58bf f023 5c3f
000000a0: 29ca 69be f1f3 88be a881 943e ce26 bdbe
000000b0: f5f4 07be 02e6 20be 8e27 aebe 5f52 8d3d
000000c0: d70d e2be f665 c93e c380 78be af38 b1bd
000000d0: d50d 1abe 2cdc 01bf 973e 7dbe f838 8fbe
000000e0: 829b 413e e770 503e ec8c 1bbe 23ba 5b3e
000000f0: f53f 7f3e f626 423e c147 263f 9ba2 81be
-0.4940639 -0.07523672 0.3968523 -0.5261116 -0.2014443 0.31246805 0.5395593 0.19741337
0.2322852 0.7349604 -0.07984325 -0.17069833 -0.52113336 0.01331539 -0.4345399 -0.11649948
0.27006957 -0.58022255 0.21306168 0.26231274 -0.023351287 -0.1195397 0.8095974 0.20150727
-0.2345589 -0.26430473 0.6246267 -0.26924163 0.17033407 -0.3449412 -0.18543874 -0.04384425
0.19252977 0.3710995 -0.40475085 0.5341961 -0.1932972 -0.07513461 -0.84522235 0.85992336
-0.22831024 -0.26748613 0.2900517 -0.36943668 -0.13277037 -0.15712741 -0.34014553 0.06900477
-0.44151184 0.39335603 -0.24267869 -0.0865339 -0.15044339 -0.5072658 -0.24730907 -0.2797315
0.18906978 0.20355569 -0.15190476 0.21457724 0.24926741 0.18960175 0.6495324 -0.2531937

running_var f4 [64]
00000000: 9a6c 3b3e 0982 083e e0e7 853e 0d9d c33e
00000010: 85bd bc3d 3079 2a3e 85d3 433e 7000 b13e
00000020: 1fcd a63e 40b9 8e3e c242 7e3d 90d8 1b3e
00000030: 02fe 613e 2ae8 a23d 882b 153e 1ab6 a63d
00000040: afcb 3c3e e641 113f c475 103e 6226 0d3e
00000050: 6240 043e dae1 023e f851 023f 1516 853e
00000060: d0c2 a53d b328 823e b275 4e3e 8113 f33d
00000070: 2814 dd3d f49e 2d3e d0da e33d e206 003e
00000080: ebf7 7c3d 5e86 953e e23c 6e3e 15b0 8f3d
00000090: 6225 f53d 771e 7a3e 3d1c 863e 0b5e 6c3f
000000a0: 46fc 963d f136 c13d 33ea 813e 6abe c13d
000000b0: 1d0a 643e c76a ac3d ed68 013e 5fbd b53e
000000c0: 76df 613e 39d1 e53d 22a9 ad3e f821 433e
000000d0: daaa a63e dba6 573e f2b3 283f a042 a63e
000000e0: 0259 d13e 2fba 743d 24b1 8f3e 6dcd 163e
000000f0: 5b8f 813d 28c1 a13d 9bce 923e 5284 553e
0.18303147 0.13330854 0.2615347 0.38205758 0.092158355 0.16647792 0.19123657 0.34570646
0.3257837 0.2787571 0.062075384 0.15219331 0.22069553 0.07954438 0.14567387 0.08140202
0.18437074 0.5674118 0.14107424 0.13784173 0.12915185 0.12781468 0.50906324 0.2599341
0.08093798 0.25421676 0.20162085 0.118689544 0.1079486 0.16955167 0.111257195 0.12502626
0.06175987 0.29204077 0.23265412 0.07016007 0.11970021 0.24425684 0.2619342 0.92331
0.07372336 0.09434307 0.25373992 0.09460147 0.22269483 0.08418804 0.12637682 0.3549604
0.220579 0.11221547 0.339181 0.19055927 0.32552224 0.21059744 0.65899575 0.32472706
0.4088822 0.05974787 0.28064835 0.14726801 0.06326171 0.0789817 0.28673252 0.20851257

weight f4 [32, 64]
00000000: 1260 2c3d bd44 bbbc cc0a 81bd 618a 95bd
00000010: ec90 0a3e 32e6 2abc 604e f8bd 2a11 8d3d
00000020: f3e8 013d 028d 84bd 3ae0 0c3d 17f2 e3bc
00000030: 8138 fdbd e55e 16bd cb38 2a3d 5a7d ed3d
00000040: 5c90 673d 0d8c e03c 6b28 26be cb53 003d
00000050: 89be 223e 36bc 993d 4dcb 163e 26cf 00bc
00000060: 0858 8d3d c1dd dfbc 8123 39be 6c20 e8bd
00000070: cca4 aeb9 fef0 2abd a369 95bd 6c3c c8bc
00000080: 2ff0 5cbc 084a 13be ff41 87bd ae22 19be
00000090: cc4f 313e 2a5e 563e 98c9 15be 2ca8 c2bb
000000a0: 1462 023d 602b ee3d 39b7 be3c 5de7 f23c
000000b0: 2d4b 29be 2340 a63d e598 cabd 1d84 423e
000000c0: 4d3c 08be 8628 c53d a50e d93d def1 4cbe
000000d0: 4be3 1abe a5d9 1bbd b44f 81bd b3a4 babd
000000e0: c97a 983d 8860 eabd 3336 d1bd 8d8b 9dbc
000000f0: 7488 0fbc 084f e53c 78fa 043d d5ac 97bb
00000100: c33e c03d 2a10 acbb fbe6 4cbe 70fe a33c
00000110: 226f 6d3d b790 e33d e715 253d ef55 b23c
00000120: eb48 063d c06c 4fbe f62c 353e dda4 c63d
00000130: 0d6b 9bbd 2657 f0bc f378 f33c 0ad7 0e3d
00000140: 5d2d 3dbd 7811 293d 6ff8 cbbd ccec 71bc
00000150: 9256 ae3c b419 813c abd1 7e3d e123 3b3e
00000160: 3832 cdbd 90d1 c9bd 79a0 32be 2c84 08be
00000170: c730 78bd df03 883c d483 2b3d 6c83 a8bc
00000180: a069 f5bd 4f6f d73c 2f6c 3b3c f8e1 76bc
00000190: b8ec 713d 8cd4 073e d4cc 0b3e 4947 55be
000001a0: e522 e53d 6ec6 c3bc 217e 5d3d a57c acbd
000001b0: 94d2 36be 8323 693d 7f17 923d 4f46 873d
000001c0: 5a54 b63c d9de 85be 169b 09bd 3395 90bc
000001d0: f674 ca3d 73ba 04be 06a6 a03c a34c 22bd
000001e0: 1a1a 42bd 0a13 aabd f352 b13d 4a94 31bd
000001f0: 2bbc 31be 1fea d83b 0afe 2ebe c709 b3bc
00000200: 2a45 c7bd 0d03 b6bd 7e61 b73d ff38 f9bb
00000210: 4fdb 78bd de5e b43c cd0d b83d d786 3fbe
00000220: 75bf b8bd e415 90bc 48cd 063e 68a4 02be
00000230: 825b 893d 94cd debd 234a bf3c 020f 97bd
00000240: 6125 d3bd 3596 b3be 9075 1dbc 05ff c03d
00000250: c29a e7bd ae0b 293e cf6e 9dbd 423c bf3d
00000260: e7ed 263e edce fc3a 5e69 fc3d 71ac 5e3b
00000270: bd30 233e 45cf 6fbe 9d00 05bd 7016 a03b
00000280: b8cb f83d 8c94 223d 72b2 9cbe c2b4 abbd
00000290: 668b 943d 8e2d 5cbd 2b72 51bd 88ad 243e
000002a0: e548 c8bd c0f5 943c d280 4fbd 1d21 51bb
000002b0: 7372 9a3c 2c8f 39be 3484 c5bc e1b2 3ebd
000002c0: cf2c e1bb 01fc 16be 9821 3b3e c1f9 65bd
000002d0: 52b4 af3c 7413 c83d 1e9f 0cbe abab b6bd
000002e0: 1a31 4c3d 7c79 0bbe 0aef 4abc 44d8 f63d
000002f0: 5219 7d3d e26b 80bc 66d4 2ebe 747c 9d3d
00000300: 7e8d 283c 2407 7bbd ad23 51be 2ff8 8ebd
00000310: 3382 8dbd 97e0 28bd 9a6a adbd e464 72bd
00000320: 0c39 163e 8ca3 42bc 0612 2a3e 4ade a53d
00000330: 8c87 f4bd 3eb9 3b3e 02cf f6bd bab4 993d
00000340: 267e a33d de9a 813d ffe5 b4bd e01d 823d
00000350: b462 1d3e 3990 a0bc 2066 cbbb d289 423c
00000360: a017 f3bd 935d 37bd 3a73 d93d e74b 32be
00000370: 0328 0dbd e95c ddbc 5a59 91bc f067 8a3d
00000380: 0eb6 a43d fab0 643d bf8d aebd 59bc 21bd
00000390: 65cd 85be bcc7 273e c48c 16be f797 023c
000003a0: 257c 32bd cdc2 2c3d 1e2c d43d 4dc1 aebd
000003b0: 459a 79bb 8299 23bc e0ba 44bc 6321 383e
000003c0: e816 92bc ef70 eebd 717c e0bd f877 283d
000003d0: 3de8 5e3e 217b 12be 71ad 0d3d a6ef 7d3d
000003e0: 40d7 513d 8954 13bc 8dd4 ab3d efa8 f83b
000003f0: 776b a03a 740d 3fbe 7763 cf3d 5b7f 27be
0.042083807 -0.022859925 -0.063008875 -0.07301784 0.13531846 -0.010430859 -0.12124324 0.068880394
0.0317163 -0.064722076 0.034393527 -0.027825398 -0.12364293 -0.036711592 0.04155807 0.115961745
0.056534156 0.027410531 -0.16226356 0.03132991 0.15892996 0.075066015 0.1472599 -0.007861888
0.06901556 -0.02732742 -0.1807995 -0.11334309 -0.0003331065 -0.041733734 -0.07295539 -0.024442874
-0.013484999 -0.1438371 -0.06604385 -0.14954636 0.17315596 0.20934358 -0.14627683 -0.005940458
0.031831816 0.11629367 0.023280727 0.029651338 -0.16532584 0.08117702 -0.098924436 0.1899571
-0.13304253 0.0962687 0.10598496 -0.2001414 -0.15125768 -0.03804936 -0.0631403 -0.09113445
0.074452944 -0.11444193 -0.10215416 -0.019231582 -0.00876056 0.027991787 0.032465428 -0.0046287575
0.09386971 -0.0052509503 -0.20009987 0.020018786 0.057967313 0.111115865 0.04030409 0.021769492
0.032784384 -0.20256329 0.17692932 0.09699414 -0.07588778 -0.02933843 0.029720759 0.034873046
-0.04618584 0.041276425 -0.09959494 -0.014765929 0.021281514 0.015759327 0.062211674 0.18275405
-0.10019344 -0.09854424 -0.17444028 -0.1333167 -0.060593393 0.016603408 0.041873768 -0.02057048
-0.11983037 0.026298193 0.011439367 -0.015068524 0.059063643 0.13264674 0.13652354 -0.20827974
0.11188296 -0.02389833 0.054075364 -0.084222116 -0.17853767 0.056918632 0.07133388 0.06605207
0.022257019 -0.26146582 -0.033595167 -0.017649269 0.0988559 -0.1296175 0.019610416 -0.039623868
-0.047388174 -0.08304413 0.086583994 -0.04335431 -0.17356937 0.0066197063 -0.17089096 -0.021855248
-0.09729989 -0.08887301 0.08954142 -0.0076056714 -0.060756024 0.022017892 0.08987007 -0.18703781
-0.090208925 -0.017588563 0.13164246 -0.12758029 0.06706907 -0.10879055 0.02335078 -0.073759094
-0.10309864 -0.35075536 -0.009610549 0.09423641 -0.113088146 0.16508362 -0.07687151 0.09337665
0.1630169 0.0019287743 0.12324785 0.0033977295 0.15936561 -0.23418911 -0.032471288 0.0048854873
0.12148231 0.039692447 -0.30604893 -0.08384086 0.07253151 -0.05375438 -0.05113427 0.16081822
-0.097795285 0.018183589 -0.050659962 -0.0031910606 0.018853402 -0.18121022 -0.02411089 -0.04655731
-0.0068717967 -0.1474457 0.18274534 -0.056146387 0.021448288 0.097693354 -0.13732573 -0.08919462
0.049851514 -0.13620561 -0.012386093 0.12052968 0.061791725 -0.015676443 -0.17073211 0.07689753
0.010287641 -0.061286107 -0.20423765 -0.06980931 -0.06909599 -0.04122981 -0.08467598 -0.059178248
0.14670199 -0.011879813 0.16608438 0.08099039 -0.11939916 0.18332383 -0.12051202 0.07505174
0.07983045 0.06328367 -0.08832931 0.063533545 0.15369684 -0.01960002 -0.0062072426 0.011873679
-0.118697405 -0.044766974 0.10617681 -0.17411767 -0.034461986 -0.027021842 -0.017742801 0.06758106
0.08042537 0.05583284 -0.0852313 -0.039486263 -0.26133266 0.16384786 -0.14702135 0.007970802
-0.043575425 0.042177964 0.10359977 -0.08532963 -0.0038086337 -0.00998533 -0.012007445 0.17981486
-0.017833188 -0.11642634 -0.10961235 0.041130036 0.2176828 -0.14304782 0.034589235 0.061996125
0.05123067 -0.008992323 0.0839015 0.007588498 0.0012239058 -0.18657476 0.10126393 -0.16357176

bias f4 [32]
00000000: 00ed c9b9 1fec 5ab9 a9e9 b1ba 8d0d abba
00000010: b891 14b9 83e9 ac39 9d26 c63a ee65 be39
00000020: d2e7 f2b9 d2d7 cd3a 0a6a d3ba 54ee 01ba
00000030: 336f cc3a 5dbe 6f3a 4de1 6ab9 5771 c2b8
00000040: 26d3 24b9 43f2 873a c8cb b03a 6a6f 5d3a
00000050: e73e 2237 d183 9439 62ab a0ba d588 6cba
00000060: da75 0cba 7d0f 43ba b305 0abb d24a e138
00000070: a90b a03a d04b e93a fb80 b1ba b415 6239
-0.00038514286 -0.00020878062 -0.0013573664 -0.0013050303 -0.00014168664 0.00032980376 0.0015117709 0.00036315568
-0.00046330557 0.0015704578 -0.0016129625 -0.0004956473 0.0015597105 0.0009145493 -0.0002239991 -9.271752e-05
-0.00015718918 0.0010371882 0.0013488466 0.0008447083 9.670598e-06 0.0002832697 -0.0012258107 -0.0009023075
-0.00053581374 -0.00074409676 -0.0021060526 0.000107427724 0.0012210506 0.0017799083 -0.0013542467 0.00021561125

weight f4 [32, 64]
00000000: bcf7 3f3b c8bf 953d 2bc1 2e3e c612 62bd
00000010: cf5e 85bc 1a36 0fbd 2414 abbc 0d79 a4bd
00000020: 44d3 e8bd b213 b9bd e004 01bc 22f6 443e
00000030: e036 f0bd b902 f03b 587e 5b3c 7475 c13c
00000040: bdf8 833d 2a88 0cbb 07f2 863c 15a9 14be
00000050: 9c91 48bd fdd7 4bbe 4d03 98bd 1cb8 57bb
00000060: 9352 a83d 6570 363e ddfb 503d ef72 6dbb
00000070: 9d7e 84bc 51ae cc3b f115 1bbe 2a95 0cbe
00000080: 23fb a6bd 3379 8fbd 2331 e3bd c080 b1bd
00000090: 90e8 d9bd 0b4b c03c d6ed 343d 2e9c 4bbd
000000a0: 56a8 41bd 8b86 d1bd 2701 65be e990 95bd
000000b0: ba02 92bb 8aca abbd 3d58 68bd 5a90 0bbe
000000c0: 6fc4 663e 2031 2ebe d92d 0e3d 05ed 8dbc
000000d0: 4cf4 6e3d d7ed 0f3e a338 29be 18d5 11be
000000e0: 449f 263e 6b3d 733d b875 973c ba4e c0bd
000000f0: 62ea 24be 991e ce3d 1e3c 5ebd 3789 193d
00000100: f7e6 b7bb 57bc 8a3d cfda 54be 4fce 943d
00000110: 1c6c 2dbd 5d1e fa3d 3284 24be adea a7bd
00000120: 5e35 613c 61a8 ca3d 0e9d e83c 98ac 0fbd
00000130: 1e32 e83d a2a4 af3d efce bf3d 94fa acbd
00000140: a3a7 723d c3ef 7abd 7eee 9abd 36e7 8c3d
00000150: 382a e03c 2a28 9cbd f00d 893c a85a 0d3d
00000160: 793e 3e3c 96db 883b f452 20bb cfc6 1fbd
00000170: ba0f 3dbe b068 dcbd 77f9 a6bd ff60 613d
00000180: e2c3 203e 5c6f 873d bf71 303d 657c d2bb
00000190: fa68 e03d 182c a5bd 3e1c c7bd f210 8cbd
000001a0: 4dd7 ee3c 80c9 fcbd 5885 9ebd 0994 c1b9
000001b0: 20a3 273c 6f5c 1c3e fed9 01be 200c 6dbd
000001c0: 2982 b03c e3d1 193e 8533 88bd 0665 313e
000001d0: 2c23 333e 9419 dcbd e3bb 2d3e 5d0a 82be
000001e0: 94ee 1f3d 4c7e 35bd 14cd 81bd b18f 25be
000001f0: 9b92 ecbd d9fd a2bb 0ccd c3bc 2b11 223d
00000200: a476 b7bc 29c3 6abd a5e7 aabd 1f48 023e
00000210: f979 fe3d 7eca 55bd 66c1 ef3d fd45 83bd
00000220: 3830 c73c 0d8c 2ebe 13f9 e03b d878 aebc
00000230: 09c0 713d f7bc 4e3d aea3 4f3a aa91 e53d
00000240: 8c45 15be dad8 5f3d f4c4 833d c929 0a3e
00000250: 3607 54bd be7a f93c 5f26 24bc 1042 ba3d
00000260: dafa f1bd 6c68 f5bd 2f4e da3b 9998 13bc
00000270: 06a3 c8bd 7efc 0f3d 58e3 b03d 3ae5 01be
00000280: e67f 893c 95fc 7d3c 2ff3 9e3c 91f8 11be
00000290: 64e3 8e3d 011e 0a3d 54d9 e5bd 660b 123c
000002a0: 1276 70bd 3ebb f73d 6b0f 6c3d fa83 523e
000002b0: ff0f 273d 1859 4e3c a4e4 93bd a529 6cbd
000002c0: d6e8 623d 77b1 c6bb 1782 6d3d 3fdd 6d3c
000002d0: bcd3 85bd 7424 00bd 5f5f 6a3d daac 983d
000002e0: 18a8 16be 54c0 efbb 24a3 33bd 7fe6 f3bc
000002f0: 5ff1 bd3c e7bb ad3d be89 db3b a239 a0bd
00000300: 0212 02bd 4720 2a3e c433 e3bd d8b1 e5bd
00000310: cb55 0a3e 1360 99bd 02cb d5bc 7ddb 91bc
00000320: e056 e13c 2ddc 883d fc90 66bc 3f08 46bc
00000330: 1f83 71be 141f d2bb 4557 ebbd 1b5d 9bbc
00000340: f0e1 ebbb 9bc1 813d 83c3 343e a1a7 a4bd
00000350: aeb0 633c 4994 843d 1f31 53bc 781f a2bc
00000360: 7215 2bbd 1b16 22be 89b2 d5bd 90cb f2bd
00000370: 0a53 6bbd 883e 433d cd88 18bd 56c9 e9bd
00000380: 0a77 86bd eee5 92bd db7e c83d acf5 f2bc
00000390: 1705 15be 37aa 553e e8c5 15bd c79a 133d
000003a0: 5f18 a0bd e5f8 2bbe ddf5 e53c 6b3f 30bd
000003b0: f030 52bb f818 413c 5b67 2e3e f843 ee3d
000003c0: b803 00be e694 f1bd 20c7 a1bd 352d 3f3e
000003d0: ce46 673d 375a 553e e2d1 223d 3c4a a13c
000003e0: d365 30be 6536 1dbe 24bd 97bd c00b 8d3d
000003f0: afcf 383d 61a2 35bd 6957 d3bd 0de6 673d
0.0029291948 0.0731197 0.17065875 -0.055193685 -0.01628056 -0.034963705 -0.020883627 -0.08030901
-0.11368421 -0.0903696 -0.007874697 0.19234517 -0.117292166 0.0073245433 0.013396822 0.023615576
0.064439274 -0.0021443465 0.01647283 -0.14517625 -0.04896699 -0.19906612 -0.074225046 -0.0032916134
0.08218875 0.17816313 0.051021446 -0.0036231836 -0.016173655 0.006246366 -0.15145089 -0.13728777
-0.08153369 -0.07005539 -0.110933565 -0.08667135 -0.10640061 0.023473283 0.04417213 -0.04970949
-0.04727968 -0.1023074 -0.22363721 -0.0730303 -0.0044558914 -0.08388241 -0.056724776 -0.13629285
0.22535871 -0.17010927 0.034711692 -0.017324934 0.05833845 0.14055572 -0.16525511 -0.14241445
0.16271693 0.059384745 0.01848875 -0.09390016 -0.16105035 0.1006443 -0.05425655 0.037484374
-0.00561225 0.06774204 -0.20786594 0.07265913 -0.04233943 0.122128226 -0.16066054 -0.08199058
0.013745634 0.09895397 0.028395202 -0.035076708 0.11337684 0.08576323 0.09365641 -0.084462315
0.059241902 -0.06126381 -0.0756502 0.068800375 0.027363881 -0.07624848 0.016730279 0.034510285
0.011611574 0.0041765673 -0.0024463506 -0.039007958 -0.1846303 -0.10762155 -0.081530504 0.055024143
0.15699723 0.06613037 0.043077227 -0.0064235204 0.10957523 -0.08065051 -0.09722184 -0.068391696
0.029155398 -0.123431206 -0.07740277 -0.00036922123 0.010231763 0.15269636 -0.12680814 -0.05787289
0.02154644 0.15021472 -0.066504516 0.17323694 0.17493886 -0.10747066 0.16966204 -0.25398532
0.039045885 -0.0443099 -0.06337944 -0.16168095 -0.115514 -0.0049741087 -0.023901485 0.039567154
-0.02239544 -0.057315025 -0.08344964 0.12722825 0.12425608 -0.052195065 0.1170681 -0.064098336
0.024314985 -0.17045613 0.0068656295 -0.021297857 0.05902103 0.05047318 0.00079208135 0.11209424
-0.14577311 0.054650165 0.0643405 0.13492502 -0.05176469 0.030454036 -0.010018914 0.09094632
-0.11815424 -0.119828075 0.0066621522 -0.00900855 -0.09796719 0.035152905 0.086371124 -0.12685099
0.01678462 0.015502115 0.019403068 -0.14254977 0.06976965 0.03372002 -0.11223093 0.00891385
-0.05870635 0.120962605 0.05763189 0.20558158 0.04078674 0.012594484 -0.07221344 -0.057656903
0.05539783 -0.006063636 0.05798539 0.014518081 -0.06534526 -0.031284764 0.05721986 0.07454844
-0.1471256 -0.0073166285 -0.043856755 -0.029772995 0.023186384 0.08483105 0.0066997698 -0.078234926
-0.031755455 0.16613875 -0.11093858 -0.11215562 0.1350929 -0.07489028 -0.026097778 -0.017804855
0.027507246 0.0668262 -0.014072653 -0.012086927 -0.23585175 -0.006412396 -0.11491255 -0.018965295
-0.0071985647 0.063357554 0.17652707 -0.08039785 0.013897104 0.06473596 -0.012890129 -0.019790396
-0.0417685 -0.15828745 -0.104344435 -0.11855233 -0.05745224 0.047667056 -0.03723984 -0.11415355
-0.06565674 -0.07172762 0.09789821 -0.029658161 -0.14552723 0.20865713 -0.03656569 0.03603628
-0.078171484 -0.16794164 0.028071338 -0.04302923 -0.0032072626 0.011785738 0.17031614 0.11634058
-0.12501419 -0.11795978 -0.07899308 0.18669589 0.05646401 0.20835195 0.03975094 0.019688718
-0.17226343 -0.15352781 -0.074091226 0.06887007 0.045119938 -0.04434431 -0.103194065 0.056615878

weight f4 [32]
00000000: 93f3 7d3f cf00 833f 3d19 833f f253 5e3f
00000010: 67cb 843f a70b 7c3f c6ab 6f3f c509 853f
00000020: afcd 813f 54d8 743f 1256 863f 2e64 6b3f
00000030: e85c 753f c29c 703f 18c1 863f 4b35 8b3f
00000040: 2905 863f 46a6 693f 81fe 8e3f be3d 653f
00000050: 9f09 7c3f 779e 843f 7a5f 8a3f d0d0 753f
00000060: f1b5 833f 5c62 7f3f 09fd 873f 2968 7a3f
00000070: 885a 863f a268 833f c5ed 843f 66e8 6b3f
0.9919979 1.0234622 1.0242077 0.8684684 1.0374573 0.9845528 0.9362148 1.0393606
1.0140895 0.9564259 1.0495017 0.9194974 0.9584489 0.93989193 1.0527678 1.0875639
1.0470325 0.9126934 1.1171418 0.89547336 0.9845218 1.036086 1.0810387 0.9602175
1.0289899 0.9975946 1.0624095 0.97815186 1.0496378 1.0266306 1.0385062 0.92151487

bias f4 [32]
00000000: 1780 233c a36b e7bc 566a e5bd 976e 0bbd
00000010: e8ec bdbd 8ced b6be bebf d0bd 107f 06be
00000020: 8aed f9bd 4ae3 1b3e a932 0dbe 29ad cc3d
00000030: c232 8a3d 4015 d1bd 64ef 4cbc 2afe 34be
00000040: 8a5c b8bd ebef 0abe 440f 1b3b 7bc3 69bd
00000050: 378c f3bd b25a 3dbd 0148 3bbe 569b f8bb
00000060: 178c 4fbd f77b 88bd 862a 8ebe 111b 8c3b
00000070: a639 35be 93b5 26be d8c5 9fbd 476f 8bbd
0.0099792695 -0.028249567 -0.112019226 -0.034041014 -0.09273702 -0.3572811 -0.10192822 -0.13134408
-0.1220351 0.15223423 -0.13788857 0.09993965 0.067479625 -0.10209131 -0.012508247 -0.17675081
-0.090020254 -0.13568084 0.0023660222 -0.05707119 -0.11891978 -0.046229072 -0.18289186 -0.007586877
-0.05067071 -0.066642694 -0.27766818 0.0042756875 -0.17697772 -0.16280203 -0.078014076 -0.06808334

running_mean f4 [32]
00000000: 7ad9 4cbf b5b6 fabe 1ef3 c9be 2f58 b5be
00000010: f34f 90bf 8ac1 22bf 848b 7ebd f2a4 95be
00000020: 8dc7 b2be 5879 ac3b 45c8 6cbc b834 093f
00000030: cd77 513e 39ba 353d 55ec 393d 4474 5abe
00000040: 8904 8cbe 4c12 8fbe 4af1 8ebd b398 0cbe
00000050: ca13 c6be 34ef 80be a4f4 af3d be97 023f
00000060: 9dc7 b5be 6348 843e a0b6 1ebd c587 05bd
00000070: 3006 0d3f 1d73 9dbe 5d17 1ebf 33e7 933e
-0.8001934 -0.4896752 -0.39443296 -0.3541884 -1.1274399 -0.6357657 -0.06214477 -0.29227406
-0.3491787 0.0052634887 -0.014452045 0.5359607 0.20455857 0.04436705 0.0453914 -0.21333414
-0.2734721 -0.27943647 -0.06979616 -0.13730125 -0.38686973 -0.25182498 0.08591583 0.5101279
-0.35503855 0.25836477 -0.038748384 -0.032600183 0.55087566 -0.30751887 -0.617544 0.28887329

running_var f4 [32]
00000000: 7570 e73e 3d5d ac3e 711a 9e3e b9c6 c03e
00000010: f27f a43e af67 703e 6eab 173e 17d8 a73e
00000020: b925 9c3e 38dc 7d3e 0624 d53e 936d 213f
00000030: 4bb4 6d3e 03cc 9e3e cda0 4c3e b242 c13e
00000040: d641 903e 5895 963e d6d6 273e a4aa 873e
00000050: 51b0 983e 6e99 5f3e 9cf4 963e 966f 323f
00000060: eaa2 db3e a4e1 053f 1413 503e e00a 333e
00000070: 88e1 b43e 3e50 743e c6a9 f93e d2b3 463e
0.45202985 0.33664885 0.30879548 0.37651613 0.32128865 0.23477052 0.14811489 0.3278205
0.3049753 0.24791038 0.41629046 0.6305782 0.23213308 0.31015024 0.19983216 0.37746197
0.2817523 0.29410815 0.16390547 0.26497376 0.2982202 0.21835873 0.29483497 0.69701517
0.4289773 0.52297425 0.20319778 0.17484617 0.35328317 0.23858735 0.4876234 0.19404534

weight f4 [16, 32]
00000000: a7a7 343e 4d42 2d3e 97be 003e 1ccc 4c3d
00000010: 0ba8 14be 2e18 373d bab5 e23d 721e bbbc
00000020: 47b0 13be 92c7 1b3e e83e e1bd 7355 573d
00000030: 42d3 f33d 1b6b 313e 5f73 113e 1291 d43d
00000040: ea21 863e b867 4c3d b46f 6b3e b248 8abd
00000050: bc1a 873b 6168 06be 0642 a3bd 1a2e 44bd
00000060: 5d34 313d 790f 51bd 1c77 543e 154f 21bd
00000070: 1ae8 243e 27a7 5bbd 093b 83bc 57e0 df3c
00000080: ac61 153d 5acf 1dbd 62cb 6c3c 888a 153e
00000090: e9b6 843a a8f2 1ebe cb3e 04be 3c78 433e
000000a0: cf52 c8bc 6d2a 893d 57fc 833e 420c 33bd
000000b0: c867 26be 45ae 623e da87 6cbd 2a64 92be
000000c0: 6040 0e3e 7900 72bd 9a1d 08be 3c4b 67bd
000000d0: 309a 873c cf21 8abd a73e 6cbe f2c3 3b3d
000000e0: ef57 e8bc 4163 523e 6adf 09be 1cb5 223e
000000f0: 9e9c a5be ed85 223d 46db 54bd cf52 663d
00000100: 691f a43e 34a3 0dbe 9462 b63d 8042 dbbd
00000110: 80d6 1d3e 4d65 6e3e c5a1 eb3c f61e d33d
00000120: 4579 b43d 881f 123e e608 08bd 31d8 0bbe
00000130: 52fe 58bd e7ca 01be 08c6 193d 912f 3e3c
00000140: 7f96 6b3c 3c9a 3abd 0f3d fcbd 39b0 c6bd
00000150: 7462 f4bb e507 133e 4299 f8bd ec7d 053e
00000160: 1017 48bb 7777 55bd b05f b13d 849f 95bd
00000170: 2c1e c83d 69ea 2ebb 6d68 d5bb c86a 4b3d
00000180: 2a4e 0cbd 73be 0b3d ca4e 083e eabc 6dbe
00000190: 8f60 293e 38c3 2b3e 33f7 f9bc 1ff6 993d
000001a0: 91ff 1dbe a7e8 523d 9a68 fabd 8d96 5fbe
000001b0: b9f7 4dbd fd85 cdbd ec3e adbc 7a68 d93d
000001c0: 429d 7cbd f2ed 3fbc 11f8 563e 8deb 2fbb
000001d0: 8261 bd3d eb81 b03d dd82 343e 4ae5 94bd
000001e0: 2427 273d 642c de3c 1e92 91be 344d 063d
000001f0: 2d30 413e 285a 01be 38f4 c8bc 167c 57bd
00000200: e6cc 5b3e 770e 8a3c 7b59 cabd 61e0 99bd
00000210: b00d 133e 28cb 80bd aba9 40be 5f82 113b
00000220: dd66 16be 2ab9 95be 7a30 84bc e58b 003d
00000230: 8f44 d63d 46e2 583d 34d5 513d 6297 18bd
00000240: 80b3 913e cf41 a63d a806 3ebe e3e6 5b3c
00000250: 265a 983d aed4 ad3e d77b 73bd 56cb 2d3e
00000260: b101 2abe bff9 bc3d bde2 3ebd 06d6 9fbd
00000270: f4e1 80be 6d5b 8fbc 8405 ae3d 5196 85bd
00000280: b196 b5bd c5b0 dd3c 666f 543e 8443 fd3c
00000290: 5c12 1e3e 73e3 c83d 50c5 9dbd 974b ed3d
000002a0: 962f 16be 1d0b 7f3c 58d7 883d cba1 1abe
000002b0: e527 2f3e d9e5 bcbc 9d09 0d3e 2cd1 7ebe
000002c0: cce8 353e f0b5 353e b258 ddbc 4ba7 38bd
000002d0: 662d 88bd 1a7b f439 2a7b 6abe d6a4 ac3d
000002e0: d205 d4bd 8e87 1cbd 6709 cf3d 2034 bebd
000002f0: 8a2b 483d afde babe e02d f33d 3719 10bd
00000300: 03b2 a93d c510 09bd 6031 ebbd 5a58 e93d
00000310: ebbf 36be b881 b3bd 2d3e 973b e930 eabd
00000320: 3df6 64bd dc91 433d d999 50be 435e 0e3e
00000330: 0c33 11be 3fd9 4fbe 17f7 fbbd 191c cfbb
00000340: 9861 e43d 6384 00bd f4df d93b 1d7d 303e
00000350: 5f6c f03d 2ad1 47be 4279 963e 062d 663c
00000360: f7cd dbbd 2737 4bbe 67a0 ff3d 7ac9 07be
00000370: ea1a a83c 98fe 1e3e 97cd b63d f0fe c6bd
00000380: 3dd2 a1bc 9770 ecbd d1bb 40be 7b41 ee3d
00000390: e5e5 a1bd 82e8 b3bd 1450 5f3d d091 173e
000003a0: 896b 643a 6802 1fbe 67e0 8abe bfe6 73bd
000003b0: f17e 913d 8284 f13c 666a 05be 43f5 89bd
000003c0: 7968 7dbe cc87 d23c bedc 0d3e 9423 10bc
000003d0: 9e5c 403e d874 cebd 70ec a0bc 0e3d 25be
000003e0: 2f7a 993d 4745 88bd 168c 4fbd ad44 433e
000003f0: 2e39 afbd 669c 123e dbd1 0bbd 3264 54be
0.1764208 0.16919823 0.12572704 0.04999934 -0.14517228 0.044700794 0.11069818 -0.022841666
-0.14422713 0.15212849 -0.109983265 0.052571725 0.119055286 0.17326014 0.14204167 0.103792325
0.2619775 0.0499036 0.2299183 -0.06752147 0.00412306 -0.13125755 -0.07971577 -0.04789553
0.04326283 -0.051040146 0.20748562 -0.03938206 0.16104165 -0.053626206 -0.016019361 0.027328653
0.0364701 -0.038527824 0.014452787 0.14603627 0.0010125312 -0.15522254 -0.12914579 0.19088835
-0.024453549 0.06697545 0.25778458 -0.04371286 -0.16250527 0.22136791 -0.057746746 -0.28592044
0.13891745 -0.059082482 -0.13292542 -0.056468233 0.016553015 -0.0674473 -0.23070775 0.045841165
-0.028362243 0.20545675 -0.13464132 0.158894 -0.32346052 0.039678503 -0.051966928 0.056231316
0.32055214 -0.13831788 0.08905521 -0.10706043 0.15413857 0.2328083 0.028763661 0.1030864
0.08812193 0.1426984 -0.03321161 -0.13656689 -0.052976914 -0.12675057 0.037542373 0.01160802
0.014379143 -0.045557246 -0.123163335 -0.097015806 -0.0074580256 0.1435848 -0.121386066 0.13036317
-0.0030531324 -0.052115884 0.08660829 -0.07305816 0.0977138 -0.0026690012 -0.0065126927 0.04966238
-0.03425423 0.034117173 0.13311306 -0.23216596 0.1654074 0.16773689 -0.030513382 0.07517647
-0.15429522 0.051491406 -0.122269824 -0.21834774 -0.050285075 -0.10035322 -0.021148168 0.106156304
-0.06167341 -0.011714445 0.20993067 -0.002684328 0.09247114 0.0861853 0.17628045 -0.07270296
0.04080881 0.027120776 -0.2843179 0.03278847 0.18866034 -0.12632048 -0.024530515 -0.052608572
0.21464881 0.0168526 -0.09880348 -0.075135 0.1436069 -0.06288749 -0.18814723 0.0022202951
-0.14687677 -0.2924283 -0.016136397 0.031383414 0.10462295 0.052950166 0.051228717 -0.037253745
0.2845726 0.08118021 -0.18557227 0.013421747 0.074390694 0.33951324 -0.059444275 0.16972098
-0.16602208 0.09227323 -0.046602953 -0.078044936 -0.2517239 -0.01749965 0.08497146 -0.06522811
-0.08866633 0.02706183 0.2074562 0.030915983 0.15436691 0.098090075 -0.0770365 0.11586683
-0.1466659 0.015566614 0.066816986 -0.15100782 0.17105062 -0.023058819 0.13773198 -0.2488448
0.17764586 0.17745185 -0.027019832 -0.045081418 -0.06649284 0.00046631024 -0.22898546 0.084298775
-0.10352673 -0.038215213 0.10109215 -0.09287286 0.048869647 -0.3649802 0.11873984 -0.035180297
0.08285906 -0.03346326 -0.11484027 0.11393805 -0.17846648 -0.08764976 0.004615566 -0.1143511
-0.055898894 0.047746524 -0.20371188 0.13903145 -0.14179629 -0.20297717 -0.12302988 -0.006320488
0.11151427 -0.031376254 0.0066490117 0.17235227 0.1173942 -0.19513384 0.29389387 0.01404882
-0.10732644 -0.19845258 0.12481766 -0.13260451 0.020520646 0.15526807 0.08925932 -0.09716594
-0.01975357 -0.11544912 -0.18821646 0.11633583 -0.07905177 -0.08784582 0.054519728 0.14801717
0.0008713534 -0.15528262 -0.2712433 -0.05954623 0.0710429 0.02948213 -0.13028869 -0.06736233
-0.24746884 0.025699519 0.13853738 -0.008797545 0.1878533 -0.1008088 -0.019643992 -0.16136572
0.07494008 -0.066538386 -0.050670706 0.19069166 -0.08555828 0.14317474 -0.03413568 -0.20741346

bias f4 [16]
00000000: 0841 85ba cda7 89ba d317 6b3b 447b 9639
00000010: 7163 253b b0ad 3aba 8406 3337 0659 53b9
00000020: 049a 17bb d2c4 34b9 7e8f cbb8 96f2 a23a
00000030: c9cb e639 5ba8 14ba 8806 de39 6daf 50ba
-0.0010166476 -0.0010502279 0.0035872355 0.0002870207 0.0025236274 -0.00071212184 1.0670748e-05 -0.00020155692
-0.0023132572 -0.00017239459 -9.706522e-05 0.0012431915 0.0004402085 -0.0005670839 0.00042348006 -0.0007960711
