gcn-main/simpl_2.pt (torch, 136177 bytes, 90 tensors)

loss_weights f4 [3]
000000 4a f7 d7 3e 75 a5 f6 3e b8 94 08 3f
       0.42180854 0.4817311 0.53351927

weight f4 [4, 2]
000000 6a 29 60 3e 9b b1 8b be 5d ea 21 3f d0 eb b8 3e
       0.21890798 -0.2728394 0.63248235 0.3611741
000010 00 2b 01 3f e7 f2 eb 3e d1 8f 3c 3f 86 46 26 bf
       0.5045624 0.46083757 0.73656946 -0.6495136

bias f4 [4]
000000 40 ab e3 3a 9c 4d 1e 3b f0 52 d1 3a e4 cd 11 ba
       0.0017369762 0.0024155146 0.0015970152 -0.0005561991

weight f4 [4, 2]
000000 b5 e9 9c be b7 58 d0 3e 3e d0 38 bf 68 54 dc be
       -0.30647054 0.40692684 -0.7219275 -0.43033147
000010 1d ed f6 3e 0f 52 03 bf d3 be 3f bf 63 10 3b 3e
       0.48227778 -0.51297086 -0.7490055 0.1826797

weight f4 [4]
000000 f6 a1 8c 3f 3d 86 8d 3f ba 88 5d 3f e2 2b 55 3f
       1.0986927 1.1056591 0.86536753 0.83270085

bias f4 [4]
000000 8d ec fd 3e 92 7e f6 3e 87 b3 bc 3e 99 d6 4a bd
       0.49594536 0.4814344 0.36855718 -0.049521063

running_mean f4 [4]
000000 6b b3 e1 3e 9e af d3 bf 54 a5 28 41 0c 7c a2 c0
       0.44082198 -1.6537969 10.540363 -5.0776424

running_var f4 [4]
000000 e1 da 21 41 17 a1 ce 41 64 55 89 42 b6 cc ff 41
       10.115937 25.828657 68.66678 31.974957

weight f4 [8, 4]
000000 55 69 e5 bd 38 e9 27 bf 4c 13 12 3d 82 e7 28 be
       -0.11201731 -0.6559024 0.035662934 -0.16494563
000010 8b b6 9b be 02 b6 39 3e 81 ae e9 be 96 6b 11 3f
       -0.30412707 0.18135837 -0.45640948 0.5680479
000020 ea 2e 02 bf df f9 0a bb a1 41 c7 3d 6d 7f 76 be
       -0.50852835 -0.0021206064 0.097293146 -0.24072047
000030 fa 58 d7 be 11 53 fe 3c ac 9a f1 3e 15 c3 67 3e
       -0.4206007 0.031045469 0.47188318 0.22633012
000040 45 d7 82 3e f4 ee 1e be 38 78 40 3d 17 bc e3 be
       0.25554863 -0.15520841 0.04698965 -0.4447944
000050 95 8b d0 3e 27 f1 dc 3e c1 2e db be 28 dc e7 3e
       0.40731493 0.43152735 -0.42809108 0.45285153
000060 3e 7a 33 3d 2e 91 06 3f c0 01 b5 be fa 86 2f bd
       0.04381775 0.52565277 -0.35352898 -0.042853333
000070 7b 9f 16 3f 86 a4 f4 3e 2d a8 ae be a4 6a ed be
       0.588371 0.4778177 -0.34112683 -0.46370423

bias f4 [8]
000000 58 f9 20 bb 00 a1 44 bb 67 a5 17 3b 6e 04 58 3a
       -0.0024562683 -0.003000319 0.002313936 0.0008240406
000010 8b ae af b9 7a b7 51 3a e5 92 e9 3b 06 de df ba
       -0.00033508646 0.00080000574 0.007128107 -0.0017079718

weight f4 [8, 4]
000000 61 1e 2a bf e7 4d 9a 3e bc 99 62 3e 72 48 8b bd
       -0.66452605 0.3013756 0.22128958 -0.06800927
000010 9a 51 d4 3d 8c dc c3 3d 53 db 0a 3f a4 9a 66 be
       0.10367127 0.0956355 0.5424091 -0.22519928
000020 29 4e 4b 3f 64 19 2a bf a2 46 34 3e 14 7d f8 3e
       0.7941614 -0.66444993 0.1760507 0.48532927
000030 18 d2 87 be fe fd e2 3e b9 a8 db be d3 fc 76 3e
       -0.26527476 0.44334406 -0.42902163 0.24119882
000040 40 dd f9 3e c1 b8 63 3f 56 fe c6 3d d1 c1 f3 bd
       0.48801613 0.8895379 0.097164795 -0.11902202
000050 16 43 0d bf 1f 56 e1 3e e9 d1 53 bd 4d 60 d9 3e
       -0.5518049 0.44011018 -0.051713858 0.42456284
000060 33 39 db 3e 4a 56 0b 3f 5d 8b da be 40 94 7a 3e
       0.42817077 0.5442854 -0.4268445 0.24470615
000070 8d d7 0a be cc cb bc bd 87 8f 3f bf eb fd 14 be
       -0.13558789 -0.09218559 -0.7482838 -0.14549987

weight f4 [8]
000000 be e8 83 3f db 29 67 3f dd 4d 83 3f 7d 0c 84 3f
       1.0305402 0.9029824 1.0258137 1.0316311
000010 bf e4 8c 3f 0c e2 6e 3f 4b 62 ae 3f 84 66 80 3f
       1.1007308 0.9331367 1.3623747 1.0031285

bias f4 [8]
000000 79 e1 04 3d 5a 85 9c 3d af 5b da 3e 72 46 5b 3e
       0.03244159 0.07642622 0.42648074 0.21413592
000010 01 7c 8a 3e 02 dd 31 3e 20 aa 4d 3b 8e 93 3c bb
       0.27047732 0.17369464 0.003138192 -0.0028774473

running_mean f4 [8]
000000 f9 af 3a bf be 35 4c 3e 36 25 4f bd 41 d2 b4 3c
       -0.7292476 0.19942376 -0.050572596 0.022072913
000010 9e 12 72 3f 4f 68 06 3f ee 49 3d 3f 6f fd 31 be
       0.9455966 0.5250291 0.7394093 -0.17381833

running_var f4 [8]
000000 63 17 21 3f 0e 0f d2 3d c0 a3 50 3f cd 27 87 3e
       0.6292631 0.10256778 0.8149986 0.26397553
000010 c0 95 3d 3f dd 07 0f 3f bf 81 5f 3f 5d 4f 2f 3f
       0.74056625 0.55871373 0.8730735 0.68480474

weight f4 [64, 8]
000000 d9 e5 96 3e 1d 2e 24 bf a0 50 12 bf 53 93 7c 3e
       0.29472235 -0.64132863 -0.57154274 0.24665575
000010 5e 51 5c bd 41 7c e2 be 14 8e c5 3e 15 c4 30 3e
       -0.053788535 -0.44235423 0.3858496 0.172623
000020 93 bc 4d be 94 c7 02 bf c2 b9 1d be 39 86 31 3e
       -0.20091467 -0.5108578 -0.15402892 0.17336358
000030 4b b4 63 bd 68 68 ed 3c 59 b0 ca bd 33 af 18 be
       -0.055591863 0.028980449 -0.09896917 -0.14910583
000040 87 e0 eb 3d 1d d1 11 bf 33 0e fa bc 97 5c 8c bd
       0.115174346 -0.56959707 -0.030524349 -0.068535976
000050 3e 69 ca be c0 cd 31 bd 11 8c b3 3e f1 a4 39 bf
       -0.39533418 -0.04340911 0.350678 -0.72517306
000060 9e d8 46 3e ef dd d5 3e a3 f6 c5 3d 8a da a5 3d
       0.1941857 0.41770884 0.09666183 0.08098324
000070 94 fb 21 3f 34 d5 0d bf 6b f9 18 3e 28 a3 bd 3e
       0.632745 -0.5540345 0.14938895 0.3703854
000080 55 67 6d bd 5c ad bb 3d 49 26 fb 3e 22 bc da be
       -0.057959873 0.09163925 0.49052647 -0.4272166
000090 b9 60 70 bd ff 6f cc bc 1e fc ee bd 2d 38 0e bf
       -0.058685992 -0.024955748 -0.11669181 -0.5555447
0000a0 5d c9 2d be 99 e1 b3 be 6e 3a 52 3b f3 42 df be
       -0.16971345 -0.35133055 0.0032078284 -0.43605766
0000b0 95 f2 d0 3d 72 e7 92 3e 29 e0 d4 3e b0 85 6e 3e
       0.10202519 0.28692204 0.4157727 0.23293185
0000c0 f6 72 88 3e bc 8e 2e be a9 d5 0c 3f b8 4f f4 3d
       0.26650208 -0.17046636 0.5501352 0.11929268
0000d0 c2 5c 25 bd 9a fe b1 3d e2 01 88 be 2f 6c 9c 3e
       -0.040371664 0.086911395 -0.26563936 0.30551288
0000e0 61 ad 8b 3d ba 6f 57 bc c9 93 92 be 98 91 18 3f
       0.06820179 -0.013149196 -0.28628376 0.5959716
0000f0 1e c2 ff be 28 c8 d7 be 9b cd 41 bf 37 27 e6 3d
       -0.49952787 -0.42144895 -0.75704354 0.112379484
000100 8b d1 69 be 17 c1 cf be 1a ab ec be fa 55 09 3f
       -0.2283384 -0.40577003 -0.4622429 0.53646815
000110 cb fd a4 3d d4 87 f1 be 5b f6 d0 be a9 2a 61 be
       0.0805622 -0.4717394 -0.40812954 -0.2198893
000120 f2 f5 9c 3c 32 a7 17 bf 3b 7f df bc b7 1f 9f be
       0.019160245 -0.59239495 -0.027282348 -0.31078884
000130 2c 73 a4 be d7 b0 2c bf b2 0b a8 3d 74 a6 dd be
       -0.3211912 -0.67457336 0.08205356 -0.43291056
000140 83 56 c6 3d c4 96 5e be 11 5d 99 3e 09 d1 a6 bc
       0.096844696 -0.217372 0.29953817 -0.020363348
000150 28 ea 85 3b 66 2e 12 3f b6 95 98 3e ea 1c 07 bf
       0.0040867515 0.5710205 0.2980172 -0.52778494
000160 1e ea 22 3f 34 1e 81 3e ed cc 07 bf 9c 35 99 3e
       0.63638484 0.25218356 -0.53047067 0.29923713
000170 e7 25 10 bf 67 1c be 3e 94 ec 39 3e 29 f7 21 bc
       -0.56307834 0.37131044 0.18156654 -0.009885588
000180 f7 82 96 3e 06 9d 95 3e 99 e2 1a 3e b7 1c b9 be
       0.29396793 0.29221362 0.15125503 -0.3615472
000190 ff b9 4f 3b fc 95 e5 3e 4e 7e 00 3f 7d 6e e6 3e
       0.0031696556 0.44840991 0.50192726 0.4500617
0001a0 1d 5e 95 3d c8 ae 74 be 62 e2 93 3e 71 40 17 3e
       0.07293341 -0.23894799 0.28883654 0.14770676
0001b0 f8 d8 9d be 9b cc 23 3e 23 3e 2f be c8 79 0d be
       -0.30829597 0.1599602 -0.17113547 -0.13815987
0001c0 3f 29 2c 3f 2e 8a ea be da 47 a6 3e 36 0f 28 3d
       0.67250437 -0.45808548 0.32476693 0.04103013
0001d0 e5 3c 96 3e 5b c5 b2 be 67 5c bc be a9 8a 4c be
       0.29343334 -0.34916195 -0.36789247 -0.1997477
0001e0 b3 c1 39 3e 50 b1 81 be 67 76 7c be ee 24 94 bd
       0.18140297 -0.2533059 -0.24654542 -0.07233606
0001f0 f6 72 3f 3e 4b 37 a3 3c b9 3a 75 3e 0f 5c 83 3e
       0.18696198 0.019923827 0.23948182 0.25656173
000200 00 79 d2 be a0 32 86 3e af b3 13 3f 1e bd 5b be
       -0.4110794 0.262105 0.5769605 -0.21458861
000210 c6 2d e9 3e 61 61 33 be a6 11 02 be 4d a2 f8 be
       0.45542735 -0.17517616 -0.12702045 -0.48561326
000220 af f2 e8 3e b8 44 15 3f 79 d4 c8 bd 1c 75 d2 bd
       0.45497653 0.5830798 -0.09806151 -0.10276243
000230 18 52 d0 3d 66 6e a7 3e da bf 03 bf 9f 7b 86 be
       0.10171908 0.32701415 -0.5146462 -0.2626619
000240 6d da 9d be 74 7b d4 3e 83 19 2e bc d5 95 1f bf
       -0.30830708 0.41500437 -0.0106262 -0.62338
000250 60 97 fc be 76 f7 32 be e3 5a 5d bf d2 9e 0a bd
       -0.4933424 -0.17477211 -0.8646681 -0.03384287
000260 ef 5e 0f be 73 8a 90 3e b7 da bf 3e 05 11 61 3e
       -0.14001058 0.28230628 0.37471554 0.21979149
000270 71 d0 1a bf 42 db d6 bd 71 5c aa be 26 87 8e be
       -0.60474306 -0.10491039 -0.33273652 -0.27837485
000280 96 75 31 bc 63 b1 14 3e f0 24 ca 3e 1b 67 fe 3e
       -0.010831257 0.14520793 0.39481306 0.49688038
000290 7c 34 3b be 18 ff 8e be f2 bc bb 3d 2b 89 c7 be
       -0.1828174 -0.27928996 0.09166898 -0.38971838
0002a0 0d 98 d8 3d bd 11 9b 3e 8d a1 10 3e d3 2c f1 be
       0.105758764 0.3028697 0.14124127 -0.4710451
0002b0 0b 14 f8 be 83 81 2f 3e c1 aa d7 bd 08 95 ca be
       -0.48452792 0.17139249 -0.105306156 -0.39566827
0002c0 16 5c 20 3e 55 78 0c bf a2 b8 8c be 65 f7 8b 3e
       0.15660128 -0.5487111 -0.27484614 0.27337185
0002d0 63 2c 14 3e 44 4d 07 bf 30 9c 1b bf a2 47 b2 bd
       0.14470057 -0.52852273 -0.607852 -0.08705069
0002e0 00 ab 45 bf d5 de 51 3e d8 52 a2 be 83 e7 46 bb
       -0.7721405 0.2049516 -0.3170383 -0.0030350394
0002f0 0c c9 14 3e 78 7b c6 be 00 f5 bd 3b 86 f2 8d 3d
       0.14529818 -0.38766074 0.0057970285 0.06931023
000300 e5 a5 a5 3e 72 59 72 3e af 5d 06 3e 3c 9a 7e be
       0.3235313 0.23666933 0.13121675 -0.24863523
000310 64 6f 96 3e 85 e6 42 be 4e d3 1c bd a0 3c 3c 3e
       0.2938186 -0.19033249 -0.038287453 0.18382502
000320 e1 73 53 3d f9 e1 77 bd d0 5b 7b 3d 11 4a 44 be
       0.051624183 -0.06051824 0.061366856 -0.19168879
000330 ac 29 98 bf ef b5 7f bd 9d 3b c7 3e a8 86 ce be
       -1.1887717 -0.062429365 0.3891267 -0.4033711
000340 0b 48 b4 3e 9c b9 62 bc 5e 4b e7 bc fd c4 a3 be
       0.35211214 -0.013838198 -0.02823418 -0.31986228
000350 11 58 56 3d 1f 28 26 3e 57 56 9b 3d 2a 22 ff 3d
       0.05233008 0.16226242 0.075848274 0.12457688
000360 e2 15 2c 3f c1 17 9a bd 9b 68 9b bd b3 ce 35 bf
       0.6722089 -0.07524062 -0.07588311 -0.7101852
000370 13 b8 05 3e 65 ce ca 3d 0d ca 9c 3e 01 b1 77 3e
       0.130585 0.09902648 0.30622903 0.24188615
000380 c0 fe 34 be 54 95 ce 3d 58 96 9b be d8 92 60 3f
       -0.17675304 0.10087076 -0.3038814 0.87724066
000390 70 c3 63 be 6d ac 1b bf 5e cf e0 bd 7f b3 a1 be
       -0.22242522 -0.60809976 -0.10977052 -0.31582257
0003a0 14 33 2a bd 45 df 79 be 8c d1 47 bf 1a a4 8f 3d
       -0.04155262 -0.24401577 -0.7805412 0.07013722
0003b0 5d e2 75 bf 30 06 22 3e 75 02 b6 be 88 dc d6 3d
       -0.9604853 0.15822673 -0.3554875 0.10491282
0003c0 7a 43 cc 3e e5 ba 8c bd 29 b9 b0 be b6 23 bd be
       0.3989523 -0.06871585 -0.34516266 -0.36941308
0003d0 a6 86 be bd f1 9c 22 3e 0e eb 7d be c8 07 ea 3e
       -0.09303026 0.15880181 -0.24796697 0.45709062
0003e0 c7 86 c5 be f9 f5 60 bc 95 03 6d bf 2d 01 69 3d
       -0.3857939 -0.013730519 -0.9258359 0.056885887
0003f0 16 44 c3 3e 86 04 9b bc 33 f6 0a bf 12 cc 3a bc
       0.38137883 -0.018923055 -0.5428192 -0.011401193

bias f4 [64]
000000 ed 10 96 b9 3d bc 25 bb 5a 6e 69 ba e5 ad 43 bb
       -0.0002862284 -0.00252892 -0.00089046883 -0.0029858288
000010 2e 93 86 b8 df 6f 71 3b 3c 53 66 bb 6c b2 0b 3b
       -6.417032e-05 0.0036840362 -0.0035144826 0.0021316065
000020 27 83 58 bb 15 dd 8d 3b ac f7 fa 3a 4d ef ef 3a
       -0.0033037157 0.0043293335 0.0019147298 0.001830557
000030 ba f1 21 bb 82 9f 3b 3a 0b f1 c2 38 c9 b5 dc 38
       -0.002471073 0.00071572524 9.2955386e-05 0.000105242776
000040 45 a8 93 ba 55 82 33 3b f3 c8 79 3b f8 57 47 bb
       -0.0011265358 0.0027390916 0.003811416 -0.0030417424
000050 f4 e5 aa ba a6 a4 fb ba 78 64 4f bb e6 e3 87 3a
       -0.0013038502 -0.0019198849 -0.0031645577 0.0010367602
000060 79 b7 47 3b cd ca 53 ba 67 11 95 ba af 1c de 3a
       0.0030474348 -0.0008079231 -0.0011372984 0.0016945804
000070 6a 51 18 bb ff 83 f5 3a 34 d4 79 3a 52 df c9 b9
       -0.0023241886 0.0018731355 0.0009530217 -0.00038504094
000080 4b ef 22 3b b3 10 7d ba af c1 ca b9 5c fa dc ba
       0.0024861868 -0.00096536725 -0.00038672748 -0.0016859281
000090 8d 66 10 39 37 48 c6 36 92 36 36 3b aa ea 59 ba
       0.00013771113 5.9092667e-06 0.0027803523 -0.0008312861
0000a0 db fa 05 b8 2e 81 32 39 f9 85 f6 3a 92 a7 8b ba
       -3.19433e-05 0.00017023526 0.0018808238 -0.0010654798
0000b0 0b 77 e6 bb d6 ee c3 3b 29 c8 9a 3a b0 87 d9 ba
       -0.007033234 0.005979399 0.001180892 -0.0016596224
0000c0 6f 10 8e 3a d8 22 f4 39 f4 0b a6 3a 43 e0 e5 ba
       0.0010838638 0.00046565267 0.0012668357 -0.0017538149
0000d0 0e 41 d3 3a 16 c3 4c b8 f8 a2 c1 3a f4 b9 2f ba
       0.001611741 -4.8819078e-05 0.00147733 -0.00067034294
0000e0 95 7f b4 ba 02 ed 8b ba 71 fd 4e ba 4f 96 c3 3a
       -0.0013770933 -0.0010675492 -0.0007896042 0.0014922115
0000f0 cc d6 01 3a 20 12 1b bb 6b a3 fa b9 aa 05 30 3a
       0.00049529667 -0.0023661926 -0.00047805472 0.0006714711

weight f4 [64, 8]
000000 82 e0 fe 3e d1 15 b6 bd 11 f4 28 be 29 d1 88 3e
       0.4978066 -0.0889088 -0.16499354 0.26722077
000010 61 21 3c 3e 7f 8a 04 be 9c 03 f8 3e 49 c5 f3 bb
       0.18372108 -0.12943457 0.48440254 -0.0074392897
000020 04 9c 1f be 84 55 fc be e4 2a 3e 3e c6 64 46 be
       -0.15586859 -0.49283993 0.18571049 -0.1937438
000030 51 44 0c bf 7a f0 c2 be 72 41 2c bf d3 e1 6c 3e
       -0.5479174 -0.38074094 -0.6728736 0.2313302
000040 93 10 2c 3f 07 aa 85 3e ce 88 e9 be cd 2c 9b 3e
       0.6721279 0.26106283 -0.45612186 0.30307618
000050 ee 16 05 3c da 09 a7 3e 7d cd 86 bd 08 da ae 3e
       0.008123143 0.32624704 -0.065821625 0.3415072
000060 7e 3f 6f 3e 6f ab e1 be 01 5b 93 3e b7 2e 8b be
       0.23364064 -0.44076106 0.28780368 -0.27184078
000070 6c 28 0b bd b2 6a 24 be 1c e6 52 be 0b 96 c2 be
       -0.033974096 -0.16056326 -0.20595592 -0.380051
000080 f6 00 95 be 90 b7 29 3f 8a ac 5e 3e a7 c3 18 3e
       -0.29102296 0.6629572 0.21745506 0.14918385
000090 92 4d 36 3e fb 44 eb bc fb 4c 4e bd bc 5d cd 3c
       0.17803028 -0.028719416 -0.050366383 0.02506911
0000a0 72 3e d2 3a ab 12 b4 be 2f 8b b3 3e ec 06 57 3e
       0.0016040339 -0.35170493 0.35067126 0.20998734
0000b0 48 c8 8b be 75 7b af 3e 82 83 91 be b9 1b db be
       -0.2730124 0.34273878 -0.28420645 -0.42794588
0000c0 bc 5e a5 be 7d db 6e be 37 81 76 3d e9 26 17 3f
       -0.3229884 -0.23325916 0.060181823 0.5904375
0000d0 bd e2 13 be 3a 37 31 3b 9a 21 ba be f3 2a ed be
       -0.14441963 0.0027040974 -0.3635376 -0.4632183
0000e0 77 70 6d bc c6 5e 77 3d be 14 f8 3e d2 40 c3 3e
       -0.014492146 0.060393117 0.48453325 0.3813539
0000f0 1a 33 de bd 73 2d 3c 3e 67 7f bb 3e d0 ad e2 bd
       -0.108495906 0.18376713 0.36620638 -0.11068308
000100 b6 33 43 be 11 33 8b be 0e cb 17 3e 29 8e 08 be
       -0.19062695 -0.27187398 0.14823553 -0.1333548
000110 46 e5 c7 3e c3 48 12 3f 8c 01 5a 3e dc 27 ee bd
       0.3904211 0.57142276 0.21289653 -0.11628696
000120 f9 79 e3 3e 9b 22 c8 be ec ab e8 bd 19 fc bb be
       0.44428995 -0.39088902 -0.113609165 -0.36715773
000130 4a 30 f0 3e aa ad 29 3e a6 4d 9e 3e 51 ef a8 bd
       0.46911842 0.16570154 0.30918616 -0.08248771
000140 70 c7 99 3e da 19 d9 3e a2 6f 4a bf d1 bf 1d be
       0.3003497 0.42402536 -0.7907659 -0.15405203
000150 ea d8 c0 bd 3b 6d 0c bf 95 5e 03 3e dc 85 49 3b
       -0.09416373 -0.5485417 0.12829049 0.0030749952
000160 49 cd c3 3e ab 1a 04 3e 3d 29 9c be 8a 39 fb bd
       0.38242558 0.12900798 -0.30500212 -0.12266834
000170 69 f8 09 3e cc 97 e3 3e 17 f8 d1 bc 1b 93 08 3d
       0.13473667 0.4445175 -0.025630994 0.033343416
000180 ca 35 8e 3e 5b 43 66 be 8c 0a 07 bf 26 b4 93 be
       0.27775413 -0.22486632 -0.5275047 -0.2884838
000190 e2 2c ac be e1 3c b5 bd d4 dd fc 3e 20 cc bf be
       -0.33627993 -0.08849502 0.4938799 -0.37460423
0001a0 d0 03 d5 be 43 13 92 3d 5d 90 1a bf 3f e3 ac bd
       -0.4160447 0.0713258 -0.6037653 -0.08441781
0001b0 3a cf 68 bf 25 ad 00 be 3b 25 ff be f5 07 38 bd
       -0.909412 -0.1256605 -0.49833092 -0.044929463
0001c0 37 de 4e 3e fc a3 0b be 6f 9f 0d bf 6e b3 86 3e
       0.20201956 -0.13636774 -0.553214 0.2630877
0001d0 32 4b 85 3d d5 b1 90 3c 48 bb 27 be 55 6c 9e 3e
       0.06508483 0.017662922 -0.16380036 0.30942026
0001e0 6c d7 ff 3e 64 13 0e 3e 96 56 83 be a1 c0 68 3f
       0.4996904 0.13874584 -0.25651997 0.9091893
0001f0 d1 eb ca be 4b c2 97 3e f1 0a 8e be 1e 8a c9 bb
       -0.3963304 0.2964042 -0.27742723 -0.006150498
000200 38 86 8e bd ca 85 a2 bd 20 44 cc be e7 c8 2c 3e
       -0.06959194 -0.079356745 -0.39895725 0.16873513
000210 3a 94 1a be ab b5 87 3e 87 a6 e2 be a3 69 de 3e
       -0.15095606 0.2650579 -0.44267675 0.4343997
000220 fd 27 1c be f3 c6 9b be 4c 1b 9e be 1f 76 d6 be
       -0.1524963 -0.30425224 -0.308802 -0.41886994
000230 a8 6a 2d 3e 49 03 23 3e b0 8d 1e be 39 8b 32 bd
       0.16935217 0.15919222 -0.15483737 -0.043589804
000240 76 95 c3 3d a8 d7 c0 be a8 9f 1d be 95 6b 8f 3e
       0.09549992 -0.37664533 -0.15392935 0.28011766
000250 c2 ba c8 be d3 79 40 be 75 10 77 3e fb 91 37 3e
       -0.39204985 -0.18796472 0.24127372 0.17926781
000260 18 02 1c be 97 90 a1 be 86 43 1b bc ff 10 c4 be
       -0.15235174 -0.31555626 -0.009476548 -0.38294217
000270 c7 53 ff bd 74 0c 7c 3c 27 f9 2e be 2e 6c 2d 3f
       -0.12467151 0.015383828 -0.17087232 0.67743194
000280 56 40 a7 be 4d a2 a4 be 24 97 30 3d e1 bb 9a 3e
       -0.32666272 -0.32155076 0.04311289 0.30221465
000290 fc 82 aa be 59 8d 94 3e d3 27 81 3e 9f 4f 2f bf
       -0.33303058 0.2901409 0.25225696 -0.6848087
0002a0 e5 86 86 be db b6 bf 3e 77 c7 db 3e 28 5c 04 be
       -0.2627479 0.37444195 0.42925617 -0.1292578
0002b0 0d 3e de 3d 4a dd 3f 3e 1a 34 14 3f 0a 73 25 3f
       0.10851679 0.18736759 0.57892 0.6462866
0002c0 f1 92 d2 be 16 73 c5 be 24 9c 74 be d5 b9 33 bd
       -0.41127732 -0.38564366 -0.23887688 -0.043878395
0002d0 c5 12 94 be a1 c9 91 be 27 7d e1 3e 3a 20 32 be
       -0.2892057 -0.28474143 0.44040796 -0.17395106
0002e0 e6 6f cf 3d dd db 05 3f a1 b4 ea 3e aa e7 d1 3d
       0.10128765 0.5228861 0.45840934 0.102492645
0002f0 0b 21 b7 be 7a f7 5c be 65 a1 37 3e db 76 50 bd
       -0.35767397 -0.2157878 0.17932661 -0.0508946
000300 e2 7b 21 be de 18 9e 3e 77 ae 58 be 14 49 b9 3e
       -0.15769914 0.30878347 -0.21160303 0.36188567
000310 18 98 ba be 6f d5 cd bb d8 53 20 3f d5 18 f5 3e
       -0.36444163 -0.006281547 0.62627935 0.47870508
000320 84 db 88 be 83 f1 e4 be 08 bb 87 be 5f b0 d8 3d
       -0.26729977 -0.4471551 -0.2650988 0.10580515
000330 16 18 1a 3e 11 93 d9 bd 92 ed ab 3d 19 ae ef be
       0.1504825 -0.10623754 0.08394922 -0.46812513
000340 19 1c aa be 7d c3 98 3e ef 7e 58 3e d7 1e 37 bf
       -0.33224562 0.29836646 0.21142171 -0.7153143
000350 c3 ad cc ba 0a 00 6e bf e3 48 09 be f3 54 27 bd
       -0.001561575 -0.9296881 -0.1340671 -0.0408525
000360 83 43 09 bf b5 78 ce be c9 cd 28 3d 7f b1 84 3e
       -0.5361864 -0.40326467 0.041211877 0.2591667
000370 42 5e e3 3e 2e 97 d6 be 81 12 46 3e 36 03 91 be
       0.4440785 -0.41912216 0.19342996 -0.28322762
000380 81 04 34 bf e2 44 17 3e 3d dc 51 be a2 5e 8b bd
       -0.7031937 0.1477237 -0.2049417 -0.06805159
000390 1c d2 4f 3e 77 8c 7c bd 9a a9 d1 3e 3c 97 1b be
       0.20294994 -0.061657395 0.40949708 -0.1519441
0003a0 74 47 a9 3e 95 e8 81 be 0d e1 64 3e 9d 5d 0f 3e
       0.33062327 -0.25372759 0.22351475 0.14000554
0003b0 e2 02 9b bd 12 90 98 3e 45 0f f2 be 35 13 52 be
       -0.07568909 0.29797417 -0.47277275 -0.2051514
0003c0 fe ea 1d bf 3b 6c a5 3e 7e db c6 be 10 d9 43 3e
       -0.61686695 0.32309136 -0.38839334 0.19125772
0003d0 2b 22 e8 bd 06 da 31 bd f7 05 42 3e f3 0d df 3e
       -0.11334642 -0.043420814 0.18947588 0.4356533
0003e0 32 4b 71 be 80 1b 58 3e 3f 66 e0 be bb 26 b0 3d
       -0.23563841 0.2110424 -0.43828008 0.08601137
0003f0 a7 e7 8d 3e 5c cf 32 be 6b 6b e1 be bf 61 82 be
       0.277158 -0.17461914 -0.44027266 -0.254652

weight f4 [64]
000000 f1 47 80 3f 71 f4 b6 3f de a9 67 3f 11 2e 95 3f
       1.0021955 1.4293348 0.9049357 1.1654683
000010 14 f0 65 3f f4 b9 78 3f b2 ea 7f 3f 6d 5f 93 3f
       0.89819455 0.9715874 0.9996749 1.1513497
000020 e1 55 58 3f 95 0b 94 3f 63 eb 6b 3f 97 3d 4b 3f
       0.8450604 1.1566035 0.92156047 0.79390854
000030 fc 5a 6f 3f aa 3c 9b 3f e0 6a 87 3f 99 21 77 3f
       0.93498206 1.2127888 1.0579491 0.9653564
000040 d9 43 88 3f 7f 3f 90 3f 8a 91 8f 3f bb cd 84 3f
       1.0645705 1.1269377 1.121629 1.0375284
000050 b2 a2 68 3f a3 aa 7c 3f 91 e9 8f 3f 5f 10 7a 3f
       0.90873253 0.9869787 1.1243154 0.9768123
000060 fb 18 77 3f f8 c5 80 3f b8 99 96 3f ee 0a 78 3f
       0.9652249 1.0060415 1.1765661 0.9689168
000070 25 e9 5a 3f bf 28 95 3f 93 ad 55 3f 2e b6 9d 3f
       0.85512 1.165306 0.8346798 1.2321222
000080 bb 7e a9 3f 96 ab 66 3f 97 e2 99 3f fb 3c 71 3f
       1.32418 0.9010557 1.2022275 0.94233674
000090 06 25 94 3f dc 97 5c 3f 52 2e 82 3f 29 50 8a 3f
       1.1573799 0.8616922 1.0170386 1.0805713
0000a0 df b4 88 3f 97 5e 92 3f a3 33 82 3f a9 51 51 3f
       1.0680197 1.1435117 1.0172008 0.8176523
0000b0 b0 08 73 3f c0 b8 69 3f c8 ab 90 3f c3 6c 81 3f
       0.9493513 0.9129753 1.1302423 1.0111316
0000c0 f7 e2 4a 3f d3 c2 7d 3f 8f 46 87 3f 3a 7c 60 3f
       0.7925257 0.99125403 1.0568408 0.87689555
0000d0 04 e3 96 3f 01 d4 86 3f 88 2c 7b 3f 78 bc 3e 3f
       1.178803 1.0533448 0.98114824 0.7450633
0000e0 80 5d 8a 3f b1 0b 7a 3f 69 8c 43 3f 75 92 84 3f
       1.0809784 0.9767409 0.76386124 1.0357195
0000f0 7c f3 81 3f 9b 89 89 3f bf c3 84 3f 46 e1 98 3f
       1.015243 1.0745119 1.0372237 1.1943748

bias f4 [64]
000000 e8 1f a1 be 06 f9 1a be 00 a9 3a be 61 f3 92 be
       -0.31469655 -0.15134057 -0.18228531 -0.28701308
000010 4a 59 15 bf 7d b0 b4 be 49 36 b2 be a3 7b 03 bf
       -0.5833937 -0.352909 -0.3480704 -0.5136053
000020 2b c0 4c 3d 89 67 21 be 8e c9 da be b1 aa 8e be
       0.049987953 -0.15762152 -0.427319 -0.27864602
000030 7e 4d d8 bd 91 b7 6b be 9d de 62 be 07 3d 9f be
       -0.105616555 -0.23019244 -0.22155233 -0.31101248
000040 4e 5d fe be 2f d3 a8 be 4e 20 8a be 76 cc 54 be
       -0.4968056 -0.3297362 -0.26977772 -0.2078112
000050 9c 8c 29 be f2 45 be be 67 c7 98 be ac 8e 98 be
       -0.16557544 -0.3716274 -0.29839632 -0.2979635
000060 ec be ab be 09 65 02 be 10 42 1b bc ec 5b e5 bd
       -0.335441 -0.12733854 -0.0094762 -0.11199173
000070 c6 6f 91 be d6 d1 92 be 22 22 ea bc e6 d5 fb be
       -0.2840559 -0.28675717 -0.028580729 -0.4918663
000080 27 0e b6 be 18 0c 23 bc ba ce 0c bf 32 2d 35 be
       -0.35557672 -0.009951614 -0.5500294 -0.17693022
000090 80 5c 83 be 89 7e 40 be c4 14 e3 be a5 36 07 bf
       -0.2565651 -0.1879827 -0.4435178 -0.52817756
0000a0 63 53 95 be cd e6 e4 be f0 78 b1 be 79 76 80 be
       -0.29165182 -0.44707337 -0.3466258 -0.25090387
0000b0 e9 36 16 3e 53 bb 1e be 29 da 47 be 34 f8 3a be
       0.14669384 -0.15501146 -0.19516815 -0.18258744
0000c0 57 05 2f 3d 6c 2d b0 be 68 94 9a be 58 13 88 bd
       0.0427297 -0.34409654 -0.3019135 -0.066443145
0000d0 97 fc 90 be 8e 5a 7f be 18 59 b1 bd c6 66 8b be
       -0.2831771 -0.24936888 -0.086595714 -0.27226847
0000e0 c7 a3 00 bf e0 89 c2 be b5 27 e3 be 6b 28 a2 bd
       -0.50249904 -0.37995815 -0.44366232 -0.07917865
0000f0 d1 7d 6d be 3f 47 32 be c7 21 e9 be 36 1e a7 be
       -0.23192526 -0.1740999 -0.45533583 -0.32640237

running_mean f4 [64]
000000 c5 3c 46 3e 3b 17 b5 bf 4a 95 3b bd 4d e2 83 3e
       0.19359119 -1.4147714 -0.04579667 0.2575859
000010 51 bf 3c 3e 6b 34 0a bd 89 f9 e9 3d e5 30 be 3c
       0.18432356 -0.033741396 0.11424548 0.023216674
000020 e1 ff b2 be 52 fd 41 bf 25 81 22 be 3e 12 bf 3e
       -0.34960845 -0.7577716 -0.15869577 0.37318605
000030 f3 14 7f 3e 6b d5 bb bf cb 68 6f bd 20 29 e8 3e
       0.24910335 -1.4674505 -0.058449548 0.45343876
000040 2c 58 23 be 70 1f ce be 0f 09 a6 bf 14 3b 0f bf
       -0.15951604 -0.4025836 -1.2971514 -0.5594952
000050 16 dc e0 bc a1 dd 0b 3f ba 33 a7 bf 19 d7 08 be
       -0.027448695 0.54635054 -1.3062661 -0.13363303
000060 59 ec 3d 3f ef 07 97 bf c9 4d 20 bf 76 24 4d 3d
       0.7418876 -1.1799296 -0.6261869 0.0500836
000070 93 91 fe be 35 64 95 bf 68 15 93 be f0 73 aa bf
       -0.4972044 -1.1671206 -0.2872727 -1.3316631
000080 64 da df be 42 92 94 3f 85 94 99 3e e2 62 81 3f
       -0.43721306 1.1607134 0.29996124 1.0108302
000090 48 3a 69 bf 85 7f 2e bf bb c8 15 bf 8f a3 20 be
       -0.91104555 -0.6816333 -0.58509415 -0.15687393
0000a0 ab 78 91 bf 75 bb 85 bf 77 2c 2d 3f fa e1 5b 3f
       -1.136495 -1.0447832 0.6764597 0.8589169
0000b0 fc dc e9 bd 7b 56 08 be fb 2d 8a 3e f4 b4 7d 3f
       -0.114191025 -0.1331424 0.26988205 0.9910424
0000c0 8a 36 9c be 10 35 d6 bf 0a 3e e2 3e 16 ee 5d 3f
       -0.3051036 -1.6734943 0.44187957 0.86691415
0000d0 64 25 d1 bd d2 9d d6 be 75 f6 18 3f af a0 6f 3f
       -0.1021221 -0.41917282 0.59751064 0.9360456
0000e0 79 fd 6d 3d f7 c0 bf 3e d1 eb 82 3f 22 45 3e bf
       0.05810306 0.37451908 1.0228215 -0.7432424
0000f0 ab 67 a8 be 72 b8 f6 be 56 85 18 be df db b5 be
       -0.32891592 -0.48187596 -0.14894614 -0.3551931

running_var f4 [64]
000000 74 18 b7 3e e1 1d b2 3f d0 d8 63 3f ea 84 be 3e
       0.35760844 1.3915368 0.89002705 0.3721078
000010 4c a5 32 3e 8a e4 0f 3e 7a b3 61 3e fc b7 3a 3f
       0.17445868 0.14052024 0.22041121 0.7293699
000020 df 10 97 3e 53 7b 2c 3f bf 7e 1d 3f 98 f9 d1 3e
       0.2950506 0.6737568 0.61521524 0.41010737
000030 f7 b2 4b 3e 70 3d fd 3f c2 3e 08 3f 18 44 1c 3f
       0.19892488 1.9784374 0.5322076 0.610414
000040 13 f3 6e 3f 19 80 4e 3e 55 b3 92 3f da 8a d7 3e
       0.9333965 0.20166053 1.1460978 0.42098123
000050 3b 7e 9a 3e be 6f d4 3e 21 51 d1 3e c7 87 82 3e
       0.3017443 0.41491503 0.4088221 0.25494215
000060 5c cc 87 3e f0 68 4d 3f 65 6a 9d 3f df f5 74 3f
       0.265231 0.80238247 1.2298094 0.9568767
000070 5f 90 93 3e 15 b5 8c 3f 2d 42 82 3e 09 14 bc 3e
       0.28821084 1.0992762 0.25441113 0.36734036
000080 10 4a a7 3f 89 20 8b 3f ef 89 8e 3e ea 50 59 3e
       1.3069477 1.0869304 0.2783961 0.21222273
000090 b6 37 26 3f bd de 14 3f 2b 95 24 3f 4e 26 85 3e
       0.6492876 0.5815237 0.6429011 0.26005787
0000a0 e5 1f 0c 3f ce 5d 0c 3f 41 1b 28 3f 5d 4f 8b 3e
       0.5473617 0.54830635 0.65666586 0.27208987
0000b0 d5 8f 71 3e 61 5b e6 3e d4 9b 2f 3f 93 d0 82 3f
       0.23590024 0.44991592 0.6859715 1.0219902
0000c0 51 86 01 3f 68 6c 63 3f 9c 66 a9 3e ec 4a e4 3e
       0.50595576 0.8883729 0.33086097 0.4458841
0000d0 e8 32 85 3f 95 d3 cc 3e 51 2c 19 3f 89 c7 23 3f
       1.040616 0.40005174 0.59833246 0.6397634
0000e0 b1 00 07 3f 65 9a 74 3e 4c b2 05 3f 4e d8 e2 3e
       0.5273543 0.23887022 0.52225184 0.44305652
0000f0 67 fc a7 3e 0c 97 d1 3e 7b ad c6 3e e6 2b ad 3e
       0.32809755 0.40935552 0.3880423 0.33822554

weight f4 [32, 64]
000000 a7 04 f2 3e 69 bd f0 bc 29 ba 4e bc 6c 5f 0f 3e
       0.47269174 -0.029387193 -0.012617626 0.14001244
000010 ed 66 14 bf cb 72 94 3e 79 6f f8 3b f2 3f c6 3e
       -0.5796955 0.2899383 0.007581648 0.3872066
000020 23 6a 16 3e 66 86 5e 3e da b3 83 bd 53 56 13 3e
       0.14688925 0.21730956 -0.06430788 0.14388399
000030 5a d4 bd bc b9 61 82 be 2a 26 2e bf 32 55 67 bd
       -0.023172546 -0.2546518 -0.68026984 -0.056477733
000040 55 17 a5 bd 59 f8 12 bf ab 16 da bd 76 dd 4b 3e
       -0.08061091 -0.574102 -0.10648855 0.199087
000050 04 30 85 3e 5e 62 ff bc 6b 87 09 be 63 81 e1 bd
       0.26013196 -0.031174835 -0.13430564 -0.11011007
000060 40 ee ba bd 40 d9 36 be df f0 94 bd 18 31 03 3e
       -0.09127474 -0.17856312 -0.07272505 0.12811697
000070 ae 35 8a 3e 74 7f 83 3e fd 9f 88 be 5a 29 57 3e
       0.2699408 0.25683177 -0.2668456 0.21011868
000080 07 89 39 bd e8 f9 c5 bd 99 56 f2 3d d6 fc 98 3e
       -0.045296695 -0.096668065 0.118329234 0.298804
000090 f3 4a ca 3e 3a 19 3e 3f 98 3e 2a bf c6 7a 27 bc
       0.39510307 0.7425724 -0.6650176 -0.010222143
0000a0 0d 2d 81 be a5 a6 38 3e 11 c3 ed 3d 30 27 37 3d
       -0.25229684 0.1803232 0.116094716 0.044715106
0000b0 e8 d5 79 3b 52 2b 5a 3d 79 a2 06 be 5b b5 cb 3e
       0.0038121883 0.05326397 -0.13147916 0.397868
0000c0 f6 c4 1a bc c3 21 1c be 37 b3 6b bc 34 37 26 be
       -0.009446373 -0.15247254 -0.01438599 -0.16231996
0000d0 fd 47 09 bf 79 ed c9 3e 23 85 89 3e 0e 25 d8 3c
       -0.5362547 0.3943899 0.26859388 0.026384857
0000e0 16 25 0d 3f 44 1b 5b be 98 46 cb 3c 08 e4 df 3e
       0.55134714 -0.2139712 0.024813935 0.43728662
0000f0 f5 8f 61 bf b1 80 4b 3e f7 9b 18 3f 2e c8 a4 be
       -0.88110286 0.1987331 0.59612983 -0.32183975
000100 28 f9 ff bb ad d3 e6 be f5 2a 4f be 4d ee 22 bd
       -0.007811684 -0.4508337 -0.2023123 -0.039778043
000110 3a 4d cc 3d b8 50 8e be 26 ab fb 3e 54 17 82 3d
       0.09975667 -0.2779596 0.49154013 0.06352106
000120 ce aa 0e 3e 2b a9 82 3e 68 1c 4c bd c8 59 40 be
       0.13932344 0.2551969 -0.049831778 -0.18784249
000130 cb 70 30 bd 6c 69 65 3e 80 81 4f be a2 93 87 3d
       -0.043076318 0.22403497 -0.20264244 0.066199556
000140 79 54 1b 3e b4 23 62 be 70 52 4c be cc 9d c9 be
       0.15168943 -0.22083932 -0.19953322 -0.39378202
000150 cb 40 23 3e e8 08 b4 bd bd 72 67 be 78 aa ab be
       0.15942685 -0.08790761 -0.22602363 -0.33528495
000160 01 2d 9a 3e fc 26 ce be 30 12 a5 be a4 c8 b2 3d
       0.3011246 -0.40264118 -0.32240438 0.087296754
000170 e9 12 7e bd 9f 2d 65 bd fd a3 45 3d bf 44 98 3e
       -0.062029753 -0.05595171 0.048252095 0.2973995
000180 c8 69 9e 3e e9 8b fc 3d b7 6c a7 be 36 3f 94 3d
       0.3094008 0.12331373 -0.3270013 0.07238619
000190 aa 83 a2 be f0 10 5b 3d 17 fc a3 be 0a 1a 64 be
       -0.31741077 0.05348295 -0.32028267 -0.22275558
0001a0 bc d7 1a 3e 1e dd 87 be c8 8e 48 be ec 87 58 bc
       0.15121359 -0.26535887 -0.19585717 -0.013216
0001b0 6d b7 88 3e db 8e 53 3e 35 b0 f7 3d a0 c1 3c bf
       0.26702443 0.20659964 0.12094156 -0.7373295
0001c0 48 41 4d be 67 42 1a be f0 76 8c be 25 26 63 be
       -0.20044434 -0.15064393 -0.27434492 -0.2218252
0001d0 94 c9 b2 be f7 c7 80 be 4e 7d 04 3e 27 8d 8b 3e
       -0.34919417 -0.2515256 0.12938425 0.27256128
0001e0 64 fb de 3e e6 14 58 3e d6 fb 65 be 21 f6 e4 bd
       0.4355117 0.21101722 -0.22459349 -0.11179758
0001f0 ef 24 49 3e 61 7d 02 3d f7 93 c3 3e 80 33 cb 3d
       0.19642995 0.031857852 0.38198826 0.09921932
000200 56 09 23 3d 13 a0 1c bf 81 13 a2 3d cd ee ec 3d
       0.039803825 -0.61181754 0.07913876 0.11568985
000210 5a e3 2b be bb be a9 3c ae 21 a8 bd 47 e5 bc bd
       -0.16785946 0.02072083 -0.08209549 -0.09223419
000220 69 cf 4c bd f5 e3 78 3d a8 e5 e6 be 6c a1 9d 3d
       -0.05000249 0.06076427 -0.4509709 0.076968044
000230 c0 c5 7a 3e eb 50 fa 3d 66 d5 19 bd 68 6b 45 3d
       0.24489498 0.12222465 -0.03755703 0.048198134
000240 7c b4 e2 3d 60 4f f4 be 16 4c 26 3d 42 80 cc 3e
       0.11069581 -0.47716808 0.040599905 0.39941603
000250 b7 97 05 3e 0d d4 91 bd 60 bc 06 bf 7b 35 3b 3f
       0.13046156 -0.071205236 -0.5263119 0.7312848
000260 ec d9 55 3e c0 38 3d 3e ec d2 d2 be ab 31 4f be
       0.20883912 0.1847868 -0.41176546 -0.2023379
000270 c1 ef 93 3e a3 8d 2a bb 8d 7b cc be 39 35 df be
       0.28893855 -0.0026024363 -0.39938012 -0.43595293
000280 80 6f 90 3e 8e a0 f5 bc b4 03 06 3e de 2a e7 3e
       0.28210068 -0.029983785 0.1308735 0.45149893
000290 02 60 81 be 26 81 92 3d 62 33 d7 3e 9e 74 7c 3c
       -0.2526856 0.07153539 0.4203139 0.015408663
0002a0 b4 3c 26 3f 87 b9 c8 3e dc 8f c6 be 1a 09 26 be
       0.64936376 0.39204046 -0.3878163 -0.1621441
0002b0 2c 3f aa be ca 2e b1 be 3f 75 5d be cb a1 53 be
       -0.3325132 -0.3460601 -0.21626757 -0.20667188
0002c0 07 61 d2 3e 93 d5 94 3d fa 33 32 be 1a 90 00 3e
       0.4108965 0.072672985 -0.1740264 0.1255497
0002d0 e1 27 86 3d 13 83 8d be 8d d3 c5 3e ea 37 75 3d
       0.06550575 -0.27639064 0.38637963 0.059867777
0002e0 55 84 0d be a6 29 00 bf 31 76 e9 3d 6a 25 e4 be
       -0.13820012 -0.5006355 0.11399496 -0.44559795
0002f0 7f 50 60 3d b0 4c a6 bd 8e 12 65 bd 68 f6 1e bf
       0.054764267 -0.08120096 -0.0559259 -0.62094736
000300 8e 5a 9a be a6 ab 8d 3d 49 76 9c 3d c6 9b 88 3e
       -0.30147213 0.06917505 0.076397486 0.26681346
000310 f4 98 a8 be 3b f1 58 be 22 97 ff 3c 5a 23 c9 be
       -0.32929194 -0.21185772 0.031199995 -0.39284784
000320 0c 41 d1 be 4f de 74 3e 9b 13 dc 3e 75 f0 8e 3e
       -0.4086994 0.23912929 0.42983708 0.2791783
000330 52 59 49 3d 66 c0 48 bb 6d 3d 38 be fd 98 bb bc
       0.049157448 -0.0030632257 -0.17992182 -0.022900099
000340 4f 24 63 be d0 f7 cd bc 4a cd 96 3e 95 54 b6 3e
       -0.2218182 -0.02514258 0.29453498 0.35611406
000350 fa 59 95 ba 3e 10 ce 3c 2f f7 82 bc f6 96 c9 3e
       -0.0011394613 0.02515423 -0.015987007 0.39372987
000360 80 0e a1 3e f7 cc 31 be b1 f6 87 bd a3 a3 c4 be
       0.31456375 -0.17363344 -0.066388495 -0.38406095
000370 59 4c a9 be c0 62 9a bc cd 51 83 3e d3 d7 d9 3e
       -0.3306606 -0.018845916 0.25648347 0.42547473
000380 86 a4 0b 3e 34 07 6d 3e 1a 6e 28 3d 8c 62 49 3e
       0.1363698 0.23147279 0.041120626 0.19666499
000390 d8 d4 5d 3e ce 78 77 3d 20 fe ab 3e a9 94 bc bd
       0.21663225 0.060417943 0.3359232 -0.09208042
0003a0 d6 a5 76 3e bf b5 71 3e b4 09 7a 3e db 23 b7 3e
       0.24086699 0.23604487 0.24417764 0.35769543
0003b0 4a 40 e3 3e 8e ed c8 3e 15 42 a5 bd 2d 12 00 be
       0.44384986 0.3924374 -0.08069245 -0.12506934
0003c0 a2 16 46 3e e6 57 46 3e ce d5 e0 bd 3d 5d a7 be
       0.19344571 0.19369468 -0.1097828 -0.32688323
0003d0 5c f1 10 be 52 cd 29 bd 93 b2 09 bf 5f 5a f7 be
       -0.14154571 -0.041455574 -0.5378811 -0.48311135
0003e0 73 21 98 3e d7 1a 84 3e 25 8f c2 be 0d 66 65 3b
       0.2971302 0.25801727 -0.37999836 0.0035003454
0003f0 ee 00 b6 3c 10 a6 05 be fc 86 60 3f 68 55 4a be
       0.02221724 -0.13051629 0.8770597 -0.19759142

bias f4 [32]
000000 12 8e 6b 3a f4 56 d9 38 c2 6a 5f b9 a7 da 51 3a
       0.00089857087 0.000103635626 -0.00021306708 0.0008005299
000010 d3 ef d0 ba d5 9a a9 39 b3 87 10 3b 5f 9a 7d ba
       -0.0015940614 0.0003234955 0.002205354 -0.0009674187
000020 b3 90 62 39 d8 4c b4 3a 92 62 ef b9 3e 10 b3 b9
       0.00021606944 0.0013755811 -0.00045659073 -0.00034153642
000030 19 f6 60 39 78 0d 30 3a 5d 7f ab 3a c0 16 3d 3b
       0.00021453983 0.0006715874 0.0013084222 0.0028852671
000040 11 a0 37 3a 9d e8 93 b9 64 49 b6 ba 4a 67 99 ba
       0.0007004748 -0.00028211335 -0.001390737 -0.0011703756
000050 c9 0d 2f 3b 4e 68 92 3a 4b e0 36 ba 7a f3 f7 3a
       0.0026711097 0.0011170001 -0.0006976171 0.0018917166
000060 4e 00 04 39 18 e2 a1 ba c3 2b 01 bb d6 03 42 bb
       0.00012588614 -0.0012350706 -0.0019709922 -0.0029604337
000070 cb b7 4f b8 25 eb c9 39 0d 60 d2 ba 69 b8 09 3b
       -4.9523816e-05 0.00038512904 -0.0016050354 0.0021014458

weight f4 [32, 64]
000000 ba 76 51 be ef 8f d1 bd a0 9b 1f be 95 05 2b 3e
       -0.20455447 -0.10232531 -0.1558671 0.16701348
000010 94 d2 c2 be 46 08 f1 3d 78 63 98 3d 1e bf 3d bd
       -0.38051283 0.11769156 0.07440847 -0.04632484
000020 94 0a 25 3e eb 38 ac 3e 3d 8a b5 be 26 f4 a3 bb
       0.16117316 0.33637175 -0.3545703 -0.00500347
000030 9d 8a 5d be 31 9f bb be ac 0a 2f bf 28 6d 8f 3e
       -0.21634908 -0.3664489 -0.6837566 0.28012967
000040 5c b2 0d bf fd d8 80 bd 35 9f 29 3d 85 79 8b 3e
       -0.5535028 -0.06291387 0.041411597 0.2724115
000050 b1 87 98 3d 14 b5 1d bf 11 cb 91 3e b6 b8 14 be
       0.07447756 -0.6160443 0.2847524 -0.14523587
000060 04 0a 1e 3e 33 74 7c bc 24 8e a8 3e 37 9e 5c 3e
       0.15433508 -0.015408563 0.32920945 0.21544729
000070 73 22 5e 3e 98 7a 8a 3d 6f 36 89 3d 9e bd b2 bd
       0.21692829 0.06761664 0.066998355 -0.08727573
000080 a4 5b c2 bd 97 35 72 3d c8 98 9c bd fa 2b 6f bd
       -0.09490135 0.05913314 -0.07646328 -0.05839155
000090 73 60 d1 bd a7 77 c0 3e 7d 99 0b 3e 0b 6d 89 3e
       -0.10223474 0.37591287 0.1363277 0.26841006
0000a0 e8 72 3e 3e 9c 62 3a 3d 3e 73 59 3e 19 04 85 be
       0.18598521 0.045504197 0.21235368 -0.2597969
0000b0 6c c1 ac 3e 0a 4b 2c 3e d5 44 95 bd 27 22 f2 3d
       0.3374132 0.168255 -0.07288519 0.1182292
0000c0 50 47 76 3e 7e 18 06 3f 29 0a 47 be 64 92 b4 bd
       0.24050641 0.5238112 -0.1943747 -0.08816984
0000d0 b3 1f aa be 0a 98 52 be e3 f9 58 be 77 d7 01 3d
       -0.3322731 -0.20565811 -0.21189074 0.031699624
0000e0 e3 ce c0 bb a6 4d 93 3e a0 a8 3f bd 99 e3 82 3e
       -0.005884038 0.2877018 -0.046791673 0.25564268
0000f0 a9 f9 d7 bd 92 50 7d be f2 41 a0 3c 44 9d ef bd
       -0.10545666 -0.24737766 0.019562695 -0.11699918
000100 30 cb f5 3d 78 9b 95 be ba e1 a2 bd b1 f6 0e bd
       0.120016456 -0.29220176 -0.0795321 -0.034903232
000110 13 79 17 bc 15 f1 ec be 78 43 89 bd 18 22 1b be
       -0.009245175 -0.4627768 -0.06702322 -0.15149724
000120 81 a4 04 3d be 78 24 3d 5d 35 ad be 17 2e 1a be
       0.032383446 0.04015421 -0.33829775 -0.15056644
000130 21 61 cd 3e 45 ee 10 3d bd f6 46 3e 80 6c a3 be
       0.40113166 0.03538348 0.1943006 -0.31918716
000140 12 08 9e be 4f f1 5d 3e c4 31 4b 3d 34 e8 eb bd
       -0.30865532 0.21674083 0.049608007 -0.115188986
000150 d5 c6 ce be a9 02 55 be 1e 02 50 3e ce 3e 44 3e
       -0.40386072 -0.20801796 0.20313308 0.19164583
000160 6b c4 06 3f 59 71 bb bd 8b 8a 61 be 84 da 26 be
       0.5264346 -0.09152479 -0.22025506 -0.16294295
000170 64 41 41 be a6 45 8f 3e 33 9c 0a 3c 71 be 41 3f
       -0.18872601 0.27982825 0.008460092 0.75681216
000180 ae cc 18 3e b4 1a 0e 3e 05 86 c7 bd c0 02 1b be
       0.14921829 0.13877374 -0.09742359 -0.15137768
000190 df c0 9d be 0f c4 5f bd c2 e6 4d bd 78 d7 1c bd
       -0.3081121 -0.054630335 -0.050268896 -0.038291425
0001a0 96 e8 95 be 32 e3 f5 bd 76 b0 91 be 39 53 74 bd
       -0.2927901 -0.12006225 -0.28454942 -0.05964968
0001b0 2e de 35 bd 72 1b d9 be f5 29 50 bf 72 0b d2 3d
       -0.04440134 -0.42403752 -0.8131402 0.10256089
0001c0 aa 0a 0e bf c0 c9 80 3e f1 46 29 be 59 3f dc bd
       -0.5548502 0.25153923 -0.16530968 -0.1075427
0001d0 31 02 a6 3c b1 7a 5d 3e bc e9 0b bd 95 8e aa 3e
       0.020264717 0.21628834 -0.034158453 0.33311906
0001e0 40 d9 b3 bd 7a 20 92 bd 19 d5 02 bf f6 a1 d5 3e
       -0.087816715 -0.07135101 -0.5110641 0.4172513
0001f0 a1 d9 96 3a b9 6e 68 be 99 f7 4e bd 1d 8b e6 3c
       0.001150895 -0.22698487 -0.050529096 0.028142506
000200 29 09 0a 3e 83 7f f2 bd ac ee 67 be ae da cf be
       0.13480057 -0.11840727 -0.2264964 -0.40596527
000210 46 5a 14 3d 32 50 21 3e c8 96 9a bb a3 d9 ac 3d
       0.036218904 0.15753248 -0.0047176816 0.084399484
000220 2d cd a0 3e d8 98 53 3e 1e fd 54 be 2b 30 a0 be
       0.31406537 0.20663774 -0.20799682 -0.3128675
000230 be 9d d5 be 01 f6 c3 3b 00 3a f7 3e 55 08 ad be
       -0.4172191 0.0059802537 0.48286438 -0.3379542
000240 38 34 9a 3e 7c da da 3e da cf 9d be 46 46 c4 be
       0.30117965 0.42744815 -0.3082264 -0.38334864
000250 0c b3 29 3d bf 6f bc be c2 14 24 3e 37 b7 c2 3c
       0.041430518 -0.36804006 0.16023543 0.023769004
000260 be 67 6c bd fb 1a b8 3e d1 51 80 3e e2 ed 3a be
       -0.057716124 0.35958084 0.2506242 -0.18254808
000270 91 dd 6f 3e fe b6 ae 3c ff d3 4d 3d 7d 61 91 3d
       0.23424365 0.021327492 0.050251003 0.070986725
000280 ed 12 b0 3e 6f 85 c5 be 00 af 00 3d db 4f 8b 3d
       0.3438944 -0.38578364 0.031416893 0.068023406
000290 f5 be b8 bd ff 05 24 3e 79 d6 0f bc eb 53 af bd
       -0.09020797 0.16017912 -0.008779162 -0.08560928
0002a0 27 d8 53 be a4 d9 20 3f 46 ea 72 3e dc 06 c2 3d
       -0.20687924 0.62832093 0.2372218 0.094739646
0002b0 f1 09 89 3d 31 ee e4 be 31 7c ae 3c 7c 78 ec be
       0.06691349 -0.44712976 0.021299453 -0.46185672
0002c0 17 53 fd 3d e6 9b bf be a3 57 04 bf c5 d0 30 be
       0.12369364 -0.3742363 -0.51696223 -0.1726714
0002d0 1a 59 8c be ad b3 c4 bd 52 b0 83 be fc 5a 77 bd
       -0.2741173 -0.09604583 -0.2572046 -0.060389504
0002e0 a3 7d ee 3d 99 4d ad 3d 5f d4 c7 bd 38 3a c3 be
       0.11645057 0.08462066 -0.097573034 -0.38130355
0002f0 e2 6e c2 3e 4e bc 18 3e 7e 0c 33 be 21 11 a6 be
       0.37975222 0.14915583 -0.17485234 -0.32434943
000300 c5 27 b4 3e 06 6a 68 3e 3c 72 f0 bd 2b 95 b9 3d
       0.35186592 0.22696695 -0.117405385 0.09061655
000310 78 7f b9 3c cb 9b 91 3d ad 76 95 be 06 84 fe be
       0.02264379 0.07109793 -0.29192105 -0.497101
000320 a8 1e e9 3d 8f 08 da be e0 e0 97 bd f6 68 d3 bd
       0.113828 -0.42584655 -0.074159384 -0.10322754
000330 a0 6d 3e 3e 4b 27 42 3e c7 bb 88 be 20 bd e9 bd
       0.18596506 0.18960302 -0.26705763 -0.11413026
000340 6a e0 13 be c2 c5 78 bd 7c 12 18 bf dd 12 20 3e
       -0.14441076 -0.06073547 -0.59403205 0.15632196
000350 62 6c 0b bf 1f 79 11 3e f5 4a 9a bd 5e 86 26 be
       -0.54462254 0.1420636 -0.07533828 -0.16262195
000360 8f 87 5d be d4 08 c0 be fa 59 3d 3e a7 d3 19 3f
       -0.21633743 -0.37506735 0.18491355 0.6008858
000370 b2 0a 8e bd a1 4d 10 be a3 b6 a4 bd 94 6a e9 be
       -0.06935634 -0.14092113 -0.08042648 -0.45589125
000380 ca f1 d8 3e a6 66 20 3e 07 9e 1f bf 13 69 1a be
       0.4237197 0.15664157 -0.62350506 -0.15079145
000390 70 ff 96 bd 44 70 41 bd 8c 74 13 bd 66 09 15 bf
       -0.073729396 -0.047226205 -0.03599982 -0.58217466
0003a0 f0 c3 8f bd 4f 63 08 3f a9 e3 65 3e d5 0f 88 be
       -0.07019794 0.5327653 0.22450127 -0.2657458
0003b0 39 89 9a 3d 80 b1 c7 3d 22 f9 d6 be 67 93 f9 3c
       0.075457044 0.09750652 -0.41986948 0.030465795
0003c0 79 8f ac 3e fd 5d d2 3d c9 65 ad bd 6a c9 4f 3e
       0.3370321 0.10271833 -0.084666796 0.20291677
0003d0 60 39 89 3e dc c9 f2 3d d6 b5 14 be 36 df 83 ba
       0.26801586 0.11854908 -0.1452249 -0.0010061029
0003e0 3d 7d 98 3e 4b de de bd 27 cc b1 be f1 44 82 3e
       0.2978305 -0.10882243 -0.34726068 0.25443223
0003f0 e7 7a f6 3d 29 53 ba 3e 39 1e b3 3e 8b 60 49 3d
       0.120351605 0.3639157 0.34983996 0.049164336

weight f4 [32]
000000 fb c8 74 3f 71 c4 62 3f 2b 08 5c 3f 35 b1 82 3f
       0.9561917 0.88580996 0.85949963 1.0210329
000010 65 85 91 3f 84 11 79 3f ca c9 9a 3f 26 db 81 3f
       1.1368834 0.9729235 1.2092831 1.0145004
000020 b5 f7 89 3f 3c fe 81 3f a6 b5 6c 3f 44 18 6a 3f
       1.0778719 1.0155711 0.92464674 0.91443276
000030 86 7a 57 3f 24 b2 8f 3f 3b a4 6b 3f f8 a7 76 3f
       0.8417133 1.1226239 0.9204747 0.9635005
000040 bc 27 5a 3f d9 00 94 3f 2e 76 78 3f fd 76 69 3f
       0.8521688 1.1562759 0.9705533 0.91197187
000050 db c6 8e 3f 72 99 87 3f c5 c5 7b 3f 9d 53 78 3f
       1.1154436 1.0593703 0.9834865 0.97002584
000060 40 c9 8a 3f 9d 7f 82 3f 34 49 86 3f ea 48 82 3f
       1.0842667 1.0195194 1.049109 1.0178502
000070 28 6c 5a 3f d8 a2 89 3f 47 68 79 3f c1 1b 90 3f
       0.85321283 1.0752821 0.9742474 1.125847

bias f4 [32]
000000 c7 64 16 bf 1b 08 3d be f3 83 e4 be c3 c0 6b be
       -0.58747524 -0.18460123 -0.4463192 -0.23022752
000010 17 50 e7 be b6 af ef be f3 e8 99 be 6b c4 1f bf
       -0.4517829 -0.46813744 -0.3006054 -0.62409085
000020 17 6f 02 bf af 0a 72 be e6 79 c1 be e0 e0 45 be
       -0.5095076 -0.23636888 -0.37788314 -0.19324064
000030 82 0d fa be a3 3d 09 bf 9f 08 3f be ec d8 fd be
       -0.4883843 -0.53609675 -0.18655632 -0.4957956
000040 96 9a 6f be 53 58 90 be b6 37 80 be c6 25 c9 be
       -0.23398814 -0.28192386 -0.25042504 -0.3928663
000050 00 bb 04 be 38 26 dd be bb 65 68 be d3 bb 95 be
       -0.1296196 -0.4319322 -0.22695057 -0.2924486
000060 d2 4d f6 be f0 94 96 be d5 0c 6e be e2 06 0f be
       -0.48106247 -0.29410505 -0.23247083 -0.1396747
000070 c9 be 9c be b9 de 28 be 0f f3 09 bf 64 cb 14 be
       -0.30614308 -0.16491212 -0.53886503 -0.14530712

running_mean f4 [32]
000000 a6 5a f7 3e 43 e2 dd bf c8 bc 9b bf 48 c1 08 3f
       0.48311347 -1.7334675 -1.2166986 0.53419924
000010 51 51 64 be 81 7e 50 bf 2e be cc bf 6f 00 70 be
       -0.22296645 -0.8144303 -1.5995538 -0.23437665
000020 98 7e 99 3f 7a 15 fe bf 15 fb 52 bf ff 4c cc be
       1.1991758 -1.9850304 -0.8241437 -0.39902493
000030 f2 16 c3 3f cc e9 f7 be e0 07 89 3f 31 6c 6f bf
       1.5241377 -0.4842056 1.0705528 -0.9352446
000040 d5 f6 b5 bf 84 a7 be bf ba a9 ce bf cf 17 9e bf
       -1.4215952 -1.4894872 -1.6145546 -1.2351016
000050 c4 c5 5d bf 1c 0c b7 3e 54 c0 9b 3e d9 59 91 bf
       -0.8662989 0.35751426 0.30420172 -1.1355544
000060 20 20 26 bf 42 0b 00 bf fc 10 3a be 01 80 33 c0
       -0.6489277 -0.5001718 -0.18170542 -2.8046877
000070 53 ba c2 bf 07 9f 1c 3f b2 67 5d bf 6a 34 27 bf
       -1.5213112 0.61180156 -0.8648635 -0.6531435

running_var f4 [32]
000000 92 70 aa 3f 03 3a d4 3f bf 60 e3 3f c0 74 06 40
       1.3315604 1.6580204 1.77639 2.1008759
000010 46 ec 08 40 68 29 03 40 1a ea 1e 40 98 e6 f3 3f
       2.139421 2.0494022 2.4830384 1.9054747
000020 1f e6 9b 3f 22 0f 67 40 0a 1d db 3f c5 c4 32 40
       1.2179602 3.6102986 1.7118237 2.7932599
000030 cb 94 e5 3f d5 bb bb 3f 06 0f ad 3f 40 94 bf 3f
       1.7936033 1.4666697 1.352021 1.4967117
000040 d6 35 c6 3f 7f 3d 33 40 dc f3 19 40 30 55 06 40
       1.548518 2.8006284 2.405509 2.0989494
000050 c1 dd eb 3f 18 51 00 40 c7 4b d9 3f c3 af 28 40
       1.8427049 2.0049496 1.697625 2.6357276
000060 18 1f bf 3f 42 aa 07 40 9f 44 23 40 45 25 1b 40
       1.4931364 2.1197667 2.5510633 2.4241498
000070 1c 02 dd 3f b1 f8 29 40 8e 0e da 3f 03 32 37 40
       1.7266269 2.655804 1.7035692 2.8624275
